runtime_data/silver.tflite (tflite, 25552 bytes, 12 tensors)

sequential/conv2d/BiasAdd/ReadVariableOp f4 [16]
000000 00 00 00 00 40 45 e0 3e db 32 ef 3d 53 1e 7b 3f
       0.0 0.43802834 0.11679622 0.98093146
000010 1d ab 1d 3f c0 e0 09 3f 78 9d 09 be ba 67 9c 3e
       0.61589223 0.53858566 -0.13438976 0.30547887
000020 00 00 00 00 77 8d 18 3d 88 fe 9f 3e 8f 99 16 3f
       0.0 0.037244286 0.3124888 0.5882806
000030 b9 e9 19 3f 39 e8 4a be 7e b4 71 3e a1 bf 5d 3f
       0.6012226 -0.19815148 0.23604009 0.8662053

sequential/conv2d_1/BiasAdd/ReadVariableOp f4 [8]
000000 a5 e4 60 be 25 52 e8 bd e0 30 af be 16 ac b3 bd
       -0.21962221 -0.11343793 -0.34216976 -0.08773057
000010 24 ee c9 bc c0 8c a5 3e c1 4a 8d bd 5c 1e 51 be
       -0.024649687 0.32333946 -0.06899024 -0.20421737

sequential/conv2d/Conv2D f4 [16, 3, 3, 1]
000000 40 cf e4 bc 09 b8 34 be a0 14 f0 bc ea c3 f9 bd
       -0.027930856 -0.17648329 -0.02930671 -0.12195571
000010 50 79 29 3c c7 ca df bd 24 67 af bd 71 86 c6 bd
       0.010343865 -0.109273486 -0.085645944 -0.096936114
000020 17 e3 44 be ed 06 bb 3e 4b 3a 91 3e f4 d0 9e bc
       -0.19227253 0.3652872 0.28364787 -0.019386746
000030 c3 41 b6 bd bd cc 5f be b0 3d 26 be 9f 29 af bd
       -0.08899262 -0.21855445 -0.1623447 -0.085528605
000040 50 0c 9f be 1c d4 f2 bd 0e b4 71 3d 5b 2f 54 be
       -0.3106408 -0.11856863 0.059009604 -0.2072119
000050 ec 61 0d be b4 8b 0e 3f ae 50 16 3d e5 67 e7 bc
       -0.13806885 0.5568192 0.036698036 -0.028247783
000060 85 d0 1c 3e a3 82 47 be 1f 2f 41 be c8 5b 2c 3e
       0.15313919 -0.19483428 -0.18865632 0.16831887
000070 6c 9d 3c bd 75 f4 3f 3e af 06 af be ef 24 b2 be
       -0.046048567 0.18745597 -0.34184787 -0.34793803
000080 ec 44 bd 3d 43 6c fa bd e2 ff 25 be e3 a2 75 3e
       0.092416614 -0.122276805 -0.16210893 0.23987918
000090 ee 7f 88 bd b5 fe 0c 3c 04 b4 3f be 94 7b a7 bd
       -0.06665026 0.008605649 -0.18721014 -0.081778675
0000a0 6f f7 36 3e 0a 12 1e 3e 93 1e 86 3e 4b e3 bd 3e
       0.17867826 0.15436569 0.261952 0.37087473
0000b0 3c 20 d8 3e cf d4 c5 bd 96 14 05 be c5 57 4b 3d
       0.42212093 -0.09659731 -0.12996134 0.04964425
0000c0 ab 51 12 3f 85 e5 a5 3e 07 f5 1b 3e 23 d1 01 39
       0.57155865 0.32401672 0.1523019 0.00012380308
0000d0 8e 9b 2d be 48 99 29 be 5e 4d 9f be fa f1 6d be
       -0.1695387 -0.16562378 -0.31113714 -0.23236838
0000e0 6c 57 54 3d a3 4b d7 bd 6f 1d a7 3d 07 ef 5a be
       0.051841184 -0.105124734 0.08159911 -0.21380244
0000f0 32 df 10 be 18 b5 e4 bd 24 c8 57 be e0 c2 57 bd
       -0.14147642 -0.111673534 -0.21072441 -0.05267608
000100 50 99 dc bd 99 94 62 be af ec 80 3e eb 9b 61 3e
       -0.107714295 -0.22126998 0.25180575 0.22032134
000110 1e 6f 53 3e 1f c5 cc 3e 37 3b f2 3d c6 90 05 3e
       0.20647857 0.3999414 0.118277006 0.13043508
000120 23 05 45 be d7 26 46 be 66 d0 b0 3d 1b 4a 2b be
       -0.19240241 -0.19350754 0.08633499 -0.16727488
000130 9d bc 2e be b0 6e 90 bc ec 6c 69 3d 8c 25 02 be
       -0.17064138 -0.017630905 0.05698864 -0.12709635
000140 e0 ca 3e be 46 1d 03 be 21 3f 70 be f1 54 28 3e
       -0.18632078 -0.12804136 -0.23461582 0.16438653
000150 ae cc 73 bc 72 f8 ce 3d c3 29 0c 3f a7 1a 06 be
       -0.014880342 0.10105981 0.54751223 -0.13096105
000160 8b 9a 44 bc 26 65 af bd 5d c2 53 3d c5 21 8c be
       -0.011999737 -0.085642144 0.05169903 -0.27369514
000170 a8 ce 47 3e 54 2c 2a 3f de f4 ac bd 50 c6 8e bd
       0.19512427 0.6647389 -0.08445142 -0.06971419
000180 0e 53 b2 bd 46 60 53 3d ec 20 98 bd d6 76 8b bd
       -0.08707248 0.051605485 -0.07428154 -0.068097755
000190 af 1d dd bd e1 be 58 3e 64 48 6c 3e 0d 78 9c bd
       -0.10796677 0.21166565 0.2307449 -0.07640085
0001a0 81 48 ca 3e 68 18 09 be 32 04 62 be f7 46 de bd
       0.3950844 -0.13388216 -0.22071913 -0.10853379
0001b0 fe 4b 01 be 15 b8 2b 3e 41 d0 32 3e d8 37 0f be
       -0.12626645 0.1676944 0.17462255 -0.13986146
0001c0 8b c5 a6 be 1c 51 6d 3e 21 3b 00 3c 23 bf 8e be
       -0.32572588 0.23175472 0.007826597 -0.278802
0001d0 03 40 16 be 1e c3 51 3e b4 57 ee 3d 24 ec 9a 3e
       -0.14672856 0.20484588 0.11637822 0.30258286
0001e0 2c 8c ec bd 68 7f 4d be b2 a0 67 be ff b6 25 3e
       -0.11550173 -0.20068133 -0.22619894 0.16183089
0001f0 30 1f 1c 3e 5e 62 51 3e 7c 1b cc 3d 9f 69 c5 3e
       0.15246272 0.2044768 0.0996618 0.38557145
000200 3a 2a bf 3e b4 4d 07 be 80 48 85 be 3d 8b 2b be
       0.37336904 -0.13213235 -0.26031876 -0.16752334
000210 d6 c2 72 bc 8a 38 cf bd bd 23 4c be 05 50 3e be
       -0.01481696 -0.10118206 -0.19935508 -0.18585213
000220 97 b2 94 be 60 07 dc bd d8 b3 2e 3e ca d3 fa bd
       -0.29042503 -0.10743594 0.17060792 -0.12247427
000230 8c d0 a8 be 77 af 78 3e a7 3b 95 bc 83 d4 13 be
       -0.3297161 0.24285685 -0.018216921 -0.14436536

sequential/conv2d_1/Conv2D f4 [8, 3, 3, 16]
000000 8b 02 1b be 6f 97 ff 3e 77 53 c7 3c c5 cc a3 3c
       -0.15137689 0.49920222 0.024331791 0.019995103
000010 09 45 e4 3d 72 c2 80 3e be be 2f 3e f8 95 f9 bc
       0.1114598 0.2514835 0.17162606 -0.030467018
000020 45 57 92 3d b6 20 70 be 59 fe 44 3e 48 e4 2c 3d
       0.071455516 -0.23449978 0.19237651 0.042209893
000030 05 8b 65 3e c9 c4 af 3e 24 d9 32 3f c3 b5 cd 3d
       0.22416313 0.34329823 0.6986258 0.10044434
000040 55 12 ac bd 40 be ec 3e 40 c9 01 3e 31 28 ec 3d
       -0.08401934 0.462389 0.12674427 0.115311034
000050 4b 85 3f 3d 52 30 bd 3c a9 f7 7b 3d fc 73 f4 bd
       0.046757977 0.02309433 0.061515484 -0.11936185
000060 b5 8a 0e 3e 98 df 7c be d0 0a 03 39 c8 e0 12 bd
       0.139201 -0.24694669 0.00012497162 -0.0358589
000070 e7 ea 65 3e 57 75 fd bb ca f8 de 3e 0b e6 b1 3d
       0.2245289 -0.0077349353 0.43549186 0.08686455
000080 17 b9 d2 bd ff 1c 95 bd 19 5e d9 bc 34 25 7b 3e
       -0.10289209 -0.07280921 -0.026534127 0.2452591
000090 0b 4a 2b be 8d a2 06 be f5 d0 2a bd 06 bb 46 be
       -0.16727464 -0.13147946 -0.041703183 -0.19407281
0000a0 6a 2a 06 3e c7 93 12 be 81 c5 04 3e cc ec c0 be
       0.13102117 -0.14314185 0.12965967 -0.37680662
0000b0 7e 1e 93 3e 56 76 b2 be 00 ba ed be e9 1f c0 3d
       0.287342 -0.34855908 -0.4643097 0.093810864
0000c0 8c 7c c2 be 82 49 4a 3e df da 37 3e b1 d6 86 3e
       -0.37985647 0.19754604 0.17954586 0.26335672
0000d0 b9 dc 5e 3e c9 1b 92 3e 71 a5 d1 3e d3 b0 2a 3e
       0.21763887 0.28536823 0.40946534 0.16669016
0000e0 55 0e 86 3e 6f 47 35 bd 90 c4 6b 3d 08 03 6f bd
       0.2618281 -0.044257578 0.057560503 -0.0583525
0000f0 0a 87 6c be 23 96 af 3c ff 27 76 3e 96 99 61 3e
       -0.23098388 0.021433895 0.24038695 0.22031245
000100 3c ec 8e be c5 3a b6 bd 74 2f da bd 48 cd 89 3e
       -0.27914608 -0.08897928 -0.10653582 0.2691443
000110 63 2f 2e 3d 59 50 a5 bd ac 4a 93 3d e4 56 18 3b
       0.04252566 -0.08071966 0.07191977 0.002324515
000120 22 b5 b8 3d c5 5f f9 3d 11 47 5b be a6 2d 30 3d
       0.09018923 0.1217647 -0.21413828 0.043012284
000130 b9 22 bb bd a1 9b be 3c 15 25 9a bd 53 13 51 3e
       -0.09137482 0.023267569 -0.07526604 0.20417528
000140 e1 7f 06 be 0d 4d 6d bd b6 61 43 be 64 f5 5c 3e
       -0.1313472 -0.05793481 -0.19080243 0.21577984
000150 d8 83 3e be 9a 12 d5 39 48 c6 21 3a 23 3b a9 bd
       -0.18604982 0.00040640385 0.0006171209 -0.082632326
000160 28 e6 4a 3e 2b ad aa bd 63 af a8 3d d4 31 bb 3c
       0.1981436 -0.083338104 0.08236577 0.022850908
000170 24 f2 b7 bd a8 95 85 be f0 d3 63 be 25 14 8d 3e
       -0.089817315 -0.2609074 -0.22248816 0.27554432
000180 d7 ba 1e be 20 6f d7 bd 87 1f 2d be 84 aa 79 3d
       -0.15500961 -0.10519242 -0.16906558 0.060953632
000190 1b 70 2d be 90 71 5d be 02 40 72 3e 5a 12 a0 be
       -0.16937296 -0.21625352 0.2365723 -0.31264
0001a0 25 92 5a 3e 00 83 07 3d ca a5 b9 be 56 11 19 bc
       0.21344812 0.033083916 -0.362593 -0.009342512
0001b0 bf 9e b1 bd 2e 09 2c 3c 61 cb 0d be 2e de 84 be
       -0.086728565 0.0105002355 -0.13847114 -0.2595076
0001c0 2e a5 78 be 0d 52 9c be 88 ab ec bd c7 b8 89 3c
       -0.24281761 -0.3053135 -0.115561545 0.016811742
0001d0 ba 91 e1 bd 98 e3 2c 3e 55 be 06 3e 50 85 dd 3c
       -0.11014123 0.16883695 0.13158543 0.027041107
0001e0 f3 63 52 3e 8e 1b 2f 3e 1d 07 ee 3d 3e 19 76 bd
       0.2054594 0.17100355 0.116224505 -0.060082667
0001f0 e4 ec 3b 3e 29 16 ed 3c 69 8e e6 bc a6 d0 56 3d
       0.18352085 0.02894123 -0.028144078 0.052445076
000200 47 91 4c be d2 f3 92 3c 4a 4d e9 3d d1 26 19 bd
       -0.19977294 0.017938528 0.11391695 -0.037390534
000210 d2 e3 1b 3e 0b 35 a9 bd 54 c8 8c 3e fd bf 3d bd
       0.15223625 -0.0826207 0.27496588 -0.046325672
000220 cc 39 f9 bc 1f 58 76 3e 66 26 01 3c 93 99 41 3e
       -0.030423068 0.24057053 0.00788269 0.1890624
000230 6d 44 6a 3e 94 b0 16 3e 5a ac 50 3e d6 73 45 3b
       0.22877665 0.14715797 0.20378247 0.0030128858
000240 db df fa bd 0b 76 1a 3e 43 2c c2 3c f9 c3 55 be
       -0.12249728 0.15084092 0.023702746 -0.20875539
000250 83 cd 85 bd fc 38 39 be 9a 72 4c 3e 26 a4 5a bd
       -0.06533339 -0.18088144 0.19965592 -0.0533792
000260 f4 70 71 3d 52 19 85 be ab e4 54 be e6 51 c7 be
       0.05894561 -0.2599588 -0.20790355 -0.3892967
000270 8e aa c5 bd 04 ee 58 be ca cd 7a be a4 6a b1 bd
       -0.09651671 -0.21184546 -0.24492565 -0.08662918
000280 a1 ac 41 3d e1 7b a6 be 6e f4 75 3d fc ba 44 bd
       0.047283772 -0.32516387 0.06004756 -0.048029885
000290 28 c3 03 bd 1c cd 5a 3e bb 5f c4 bd 75 47 1b bd
       -0.032168537 0.21367306 -0.09588572 -0.037909944
0002a0 11 86 4c 3d bd 5c c3 3e 76 c2 7a bc 6a 05 c3 3e
       0.049932543 0.3815669 -0.015305152 0.38090068
0002b0 38 6e 0c be 50 c7 26 bd 92 6d 99 3d bf 8d a6 bd
       -0.1371392 -0.040717423 0.07491602 -0.08132505
0002c0 a2 62 c9 3c 22 57 25 be 40 10 72 3e 48 eb 89 be
       0.024583165 -0.1614652 0.23639011 -0.26937318
0002d0 0b 82 30 be fe e8 8d 3d f1 0f 03 3e cb c6 2b be
       -0.17237107 0.06929205 0.1279905 -0.16775052
0002e0 9a 2d 22 be 55 4d 6b 3e 10 8f df 3d 05 a9 19 3f
       -0.15837708 0.22978719 0.10915959 0.6002353
0002f0 d6 9f 2d be f5 15 1e bc 1e 65 23 3f 8f f6 48 be
       -0.16955504 -0.00964879 0.6382617 -0.19625305
000300 30 f5 56 be c4 9c 0b bd 80 7c 90 3d b9 c0 d3 bc
       -0.20991969 -0.03408505 0.070549965 -0.025848733
000310 a9 f7 84 3e d7 a0 19 3e 31 8b 65 3e 4a f7 80 3e
       0.259702 0.15002762 0.22416379 0.25188667
000320 7f d1 bc 3d 6a 53 f2 bc 2c a1 e3 3d 87 d2 1a bd
       0.09219646 -0.02958079 0.111147255 -0.03779843
000330 51 bd aa 3d 5e ee d8 bc 60 1b df bd 69 76 1e bc
       0.083368905 -0.02648085 -0.10893893 -0.009671786
000340 6f f3 6b bd 46 8d a4 be 48 4e 8b 3d a7 63 c5 be
       -0.057605203 -0.32139033 0.0680204 -0.3855259
000350 61 4b c1 3b 85 b9 7f bb e2 52 ee 3d ce 3a 9e 3d
       0.0058988784 -0.003902049 0.116369024 0.0772606
000360 57 09 c3 bd fa 3a da bd 2c e3 ab bd d0 c1 f6 3d
       -0.09523266 -0.1065578 -0.08392939 0.120486856
000370 43 85 df bd bb 18 b8 3d 10 7e 79 3e 3d 0c 7d be
       -0.109140895 0.08989092 0.24364495 -0.247117
000380 b4 cc e0 bd cc b5 9a be f6 2d 57 3d 97 27 32 be
       -0.10976544 -0.30216825 0.052534066 -0.17397915
000390 dc aa cf 3d f1 92 3a 3e 54 48 46 3e 73 29 a8 bd
       0.10140011 0.18220116 0.19363528 -0.08211031
0003a0 0d 77 39 bd 0e 0a d5 3d 39 9c ca bd b3 b3 7d 3c
       -0.04527955 0.104023084 -0.09893078 0.015484738
0003b0 4f 90 11 3d 33 de eb bd 53 79 f6 3e e3 62 30 be
       0.035538014 -0.115169905 0.48139438 -0.17225222
0003c0 70 f2 b6 bd 69 6b c2 3d 57 9a 12 be ed d2 65 3e
       -0.0893296 0.09493143 -0.14316688 0.22443743
0003d0 1a 6f a0 3d f7 1a e0 3e a0 2d 41 bc 77 ba 0a 3d
       0.07833691 0.43770573 -0.011790663 0.033869233
0003e0 4d 56 4c bd 52 52 8e 3e 90 d7 b6 3d a7 a5 95 3e
       -0.04988699 0.2779718 0.08927834 0.29227945
0003f0 89 fe 56 3d 5a eb 40 3d 7a 10 d2 3d 5c a4 16 be
       0.052488837 0.04709945 0.10257049 -0.14711136

sequential/dense/BiasAdd/ReadVariableOp f4 [8]
000000 9c 09 61 be cb 92 70 3c fd b1 91 bd 81 c9 99 bd
       -0.21976322 0.014683436 -0.07114027 -0.07509137
000010 f2 89 20 be 42 81 b5 be a7 19 5d 3e 91 39 24 be
       -0.15677622 -0.35450178 0.21591817 -0.16037585

sequential/dense_1/BiasAdd/ReadVariableOp f4 [2]
000000 e9 b4 72 3f 00 b5 72 bf
       0.94807297 -0.94807434

sequential/batch_normalization/FusedBatchNormV3 f4 [16]
000000 72 fb fc 41 c8 47 95 3e 07 d4 c1 3d db bc 0e 3f
       31.622776 0.29156327 0.09464269 0.5575692
000010 51 0f d0 3b bd a0 f9 3c 7f b5 cd 41 6a bb 63 3c
       0.006349482 0.030472154 25.713621 0.013899663
000020 72 fb fc 41 03 26 c7 3d ae 73 07 3d e4 6c e1 3d
       31.622776 0.09724047 0.033069305 0.11007097
000030 ed 3a 0e 3f 3e 8a 1f 3d 86 8c fe 3d bc 82 c1 3f
       0.55558664 0.038950197 0.124291465 1.5118022

sequential/batch_normalization/FusedBatchNormV31 f4 [16]
000000 7d e9 9e 3e 5c 86 06 bd ce 74 d3 bf cd 60 1c 3e
       0.31037512 -0.03284298 -1.6520021 0.15271302
000010 a6 b1 83 bf 3c 4c 11 c0 ae a5 9a be 7c 91 cf bf
       -1.0288589 -2.270278 -0.3020453 -1.6216273
000020 d0 ff 97 be 95 ad 1a c0 c3 fc 01 c0 4a 60 b3 bf
       -0.29687357 -2.4168446 -2.0310524 -1.401376
000030 e4 a3 9f 3d b7 d8 25 c0 0b 40 17 bf e6 a2 4f 3e
       0.077949315 -2.5913522 -0.59082097 0.20276985

sequential/batch_normalization_1/FusedBatchNormV3 f4 [8]
000000 4a 50 90 3e fb e6 34 3f 31 ef ad 3f 70 e1 da 3e
       0.28186256 0.7066495 1.358862 0.4275012
000010 3d 60 3b 3f 2a 2b 7b 3e c4 bc 97 3e 5f 44 a3 3e
       0.7319372 0.24528185 0.29636204 0.318881

sequential/batch_normalization_1/FusedBatchNormV31 f4 [8]
000000 d3 eb ef be a9 1e c4 be 44 ab c7 bd 2c 33 d6 be
       -0.46859607 -0.38304642 -0.09749463 -0.41835916
000010 f7 3b f6 be c0 5b 98 bf 58 8d 22 bf 5a 43 13 bf
       -0.48092625 -1.1903 -0.63496923 -0.57524645

sequential/dense/MatMul f4 [8, 480]
000000 db 62 e6 3d ea 82 ed 3d 86 9c b1 3d cb 52 92 3e
       0.11249324 0.115972355 0.086724326 0.2857879
000010 4d 71 0e 3e 1d e7 91 bd 5c 58 f0 3e ab c8 98 3e
       0.13910408 -0.071241595 0.46942413 0.29840598
000020 5a d4 5f 3e 81 58 82 3e c2 61 1f be 83 17 5e bd
       0.2185835 0.25458148 -0.15564635 -0.05422164
000030 ce 81 ef bd 5d 67 6f 3e dd 4b b9 3e 2a df d2 3e
       -0.1169468 0.23379274 0.36190692 0.41185886
000040 63 10 fd 3d 82 58 eb 3d b4 56 57 bd f0 66 b0 bd
       0.12356641 0.11491491 -0.05257292 -0.08613384
000050 cf 1f c3 bd 03 30 0f 3e 2d 7e 0c 3d 56 f4 44 3b
       -0.095275514 0.13983159 0.034300018 0.0030052862
000060 12 08 ed 3c 51 bb 44 bd e9 1a a5 be 01 b1 46 3d
       0.028934512 -0.0480302 -0.32247093 0.048508648
000070 6c bc ea be aa ab 7b bd 69 bf 58 3d 93 79 b7 bd
       -0.4584688 -0.06144301 0.052916918 -0.08958735
000080 6f e2 43 3d bb c6 fa bc aa 52 8f bd 1d 49 12 3d
       0.047823366 -0.03061234 -0.06998189 0.035714258
000090 fd 9e 1e 3d c1 6a 99 3d da 1f 0a 3e 40 44 10 be
       0.03872584 0.07491065 0.13488713 -0.14088535
0000a0 1a 9d ca 3d 23 45 3e bd 67 b6 7c 3d c9 5f ef 3d
       0.09893246 -0.046452653 0.06169739 0.116881914
0000b0 b7 44 d1 3b 3e f9 5f 3d a2 ea bd 3d bd 9c 07 bc
       0.0063863653 0.054681055 0.09273268 -0.008277115
0000c0 bc d2 08 3b 10 d7 f1 3d 1b bc 99 bd b0 c8 23 3e
       0.002087756 0.11808598 -0.075065814 0.15994525
0000d0 16 d5 5f 3e 8d 1f 25 bb 03 13 9f bd 57 b5 1f be
       0.2185863 -0.0025195808 -0.07767298 -0.1559652
0000e0 ff 4c 05 be 30 97 47 bc e1 f1 a6 be c5 94 e6 bc
       -0.13017653 -0.012182042 -0.32606414 -0.02814711
0000f0 d0 84 94 bd c0 b2 1c 3e 9a 24 a5 bd 6a 0f 62 3e
       -0.072518945 0.15302563 -0.08063622 0.22076192
000100 98 c2 8f be 49 ce 39 3e 85 b1 89 be 2a ea 55 3e
       -0.2807815 0.18145098 -0.2689325 0.20890108
000110 16 3c e2 be 38 94 8f 3e db 0d ae 3e 88 3c 86 3e
       -0.44186467 0.2804277 0.33994946 0.26218057
000120 ef 59 86 bd 35 5b 59 3e b4 26 03 bd 0c d3 d0 3c
       -0.06560122 0.21226199 -0.032019332 0.02549126
000130 b8 f4 15 bf cd e9 ec 3d 08 16 9f 3c c2 2e ac 3d
       -0.58576536 0.115680315 0.019419685 0.08407356
000140 f8 f0 68 be 74 38 ec bd 8e 70 0c be e8 8f 68 3e
       -0.22748172 -0.11534205 -0.13714811 0.22711146
000150 da 7d 9d be d7 93 5c 3e 13 15 91 3e fc b0 6c bd
       -0.3076008 0.21540771 0.2833639 -0.057785973
000160 48 b9 20 be 1c 62 c8 3d 89 c7 ec bd 5e 33 0d 3d
       -0.15695679 0.09784338 -0.11561496 0.034472816
000170 14 13 80 bd ba 3d 73 bd d1 21 43 3d f9 54 39 3d
       -0.06253639 -0.05938504 0.04763967 0.045247052
000180 a7 4c 0b 3e 23 e9 9b 3d a1 79 09 be 74 61 0d 3e
       0.1360346 0.07612827 -0.13425304 0.13806707
000190 c6 86 61 3d 2d 5b a0 bd c6 c8 a0 38 11 b2 a5 be
       0.05506017 -0.078298904 7.6667915e-05 -0.32362416
0001a0 5c d7 4c 3e 4e c1 ab bb 8d 17 89 be ee 88 f2 3d
       0.20004028 -0.0052415496 -0.2677578 0.118425235
0001b0 d2 fe a0 3d 15 46 94 bd 4b c0 bb bd b9 08 9b be
       0.07861103 -0.072399296 -0.09167536 -0.30280092
0001c0 21 94 51 3e d4 21 a0 3d 13 8c ed bd a0 f0 9a 3d
       0.20466663 0.07818952 -0.11598983 0.07565427
0001d0 4a 4e 2a 3e 50 fd 61 3e ec 7b 83 3d 35 d9 a0 be
       0.16631427 0.22069287 0.064201206 -0.31415716
0001e0 db de 08 3e fa ee 5f 3e 27 70 e6 3d 59 8d cd 3c
       0.13366263 0.21868506 0.1125186 0.025091814
0001f0 bd ce 4c be 5e 41 ce 3d 5e 4d a8 3d a8 19 e0 bd
       -0.2000074 0.100710616 0.082178816 -0.109423935
000200 cb e5 ce 3d 67 0f 3d bc 0d fb 8f 3c f9 ff 2c be
       0.10102423 -0.011539317 0.017575765 -0.16894521
000210 13 ff 2c be c5 25 18 bd 0b 76 4d 3e 01 f5 61 be
       -0.16894178 -0.037145395 0.20064561 -0.22066118
000220 b4 69 39 be 4c 3a 88 3e e5 4a 9a 3d b7 48 47 3d
       -0.18106729 0.26606977 0.07533816 0.04865333
000230 e1 14 06 bf 1b 60 7b 3e 9e 60 b9 3e fc 16 91 be
       -0.5237561 0.2454838 0.36206526 -0.28337848
000240 cb 76 67 be 57 13 30 bd 4c ba 8f be 56 8a d8 bd
       -0.2260391 -0.042987194 -0.2807182 -0.105732605
000250 b8 9c ff be ce 8c 52 3e 47 46 e4 3d 9d 82 7a be
       -0.49924254 0.20561525 0.11146217 -0.24463888
000260 5e 16 6b be 49 6b 1b bd 6d 66 ba be b2 1a 46 be
       -0.22957751 -0.037944112 -0.3640627 -0.19346121
000270 58 90 2c bf 46 b5 c5 bd bf df 84 3e 97 67 c4 bd
       -0.6740775 -0.09653716 0.25951955 -0.09590071
000280 d9 8a 10 3e 4a d9 99 3e b6 fd fd bc f9 6a 2b 3d
       0.14115466 0.3004859 -0.031004768 0.041850064
000290 85 d9 4b be 5d 40 ad 3e 86 5a 8b 3c 76 5a f0 bd
       -0.19907196 0.33838168 0.017010938 -0.11736004
0002a0 7c a2 7f 3e e6 06 5d 3e 6c 66 dd 3d f8 20 20 be
       0.24964327 0.21584663 0.10810551 -0.15637577
0002b0 ac 3b bb bd 81 2a 54 3e 21 3c a5 3c 34 de b2 3d
       -0.09142241 0.20719339 0.020170273 0.08733788
0002c0 7d 8c 9b 3d 0c 08 11 3e 8b 71 43 bd 4a 63 62 be
       0.075951554 0.14163226 -0.047715705 -0.22108188
0002d0 76 c0 49 3d 88 51 00 3e c8 7d e1 bd 76 28 9e bd
       0.04925581 0.12531102 -0.11010319 -0.07722561
0002e0 97 61 2d 3e ba 22 97 bc 0e c6 e7 bd ae 9c 85 3e
       0.16931759 -0.018449176 -0.11317073 0.260961
0002f0 a9 64 27 3e ad 85 92 3c 22 5f 14 be cd 47 85 be
       0.16346993 0.017886007 -0.14489415 -0.26031342
000300 3d 3e 5f 3e ed e9 96 3d 1d a8 88 3c cc a0 c7 3c
       0.21801086 0.073688366 0.016681725 0.024368666
000310 d1 70 c9 3d 71 f0 39 3d ad 80 9d bd e9 4a ac be
       0.09835971 0.04539532 -0.076905586 -0.33650902
000320 31 66 42 3d 70 9b 18 3d f0 e2 a7 bd 95 83 84 be
       0.04746074 0.03725761 -0.08197582 -0.2588164
000330 f7 be 39 bd 7b 45 9a bd a1 d1 6c 3e 51 57 8f bd
       -0.045348134 -0.075327836 0.23126842 -0.06999076
000340 1b c4 f4 3d 20 1f 1e 3e 0e 91 17 be 79 ee e8 be
       0.11951467 0.15441561 -0.14801428 -0.4549444
000350 70 70 39 be 6d a5 11 bd 4b 8b d3 3d bf b0 67 bd
       -0.18109298 -0.035558153 0.103293024 -0.056565043
000360 8c d7 c9 3e 69 ae 8a 3e 8a 32 c3 be b7 0a ea bd
       0.39422262 0.2708619 -0.38124496 -0.11427825
000370 70 4d b1 bd 06 a4 15 3e 93 82 41 3e 07 83 fa bd
       -0.08657348 0.14613351 0.18897466 -0.12232023
000380 8a a0 5c 3e 3c aa 11 3d 69 f8 24 3e c2 73 4c be
       0.21545616 0.03556274 0.16110386 -0.19966033
000390 5c 59 84 be d6 5d 95 3e 9a 79 55 bb ab 1a 11 3e
       -0.25849426 0.29173154 -0.00325737 0.1417033
0003a0 3f da 25 3e 83 66 14 be b1 fb cd bc 4d 7f bf 3b
       0.16196536 -0.1449223 -0.02514443 0.005844033
0003b0 66 c8 9e be 54 fb 61 3e 15 94 e9 3d ae e2 7f bd
       -0.31012267 0.2206853 0.114051975 -0.062472038
0003c0 65 69 82 3e 2f 8c 19 3e b1 71 0c 3e 21 c9 55 bd
       0.25471035 0.14994882 0.13715245 -0.052193765
0003d0 c8 cb 2c 3e 43 1a c2 3c 9a 75 0b 3e 5d d8 15 3e
       0.16874611 0.023694163 0.1361908 0.14633317
0003e0 1e 7c 38 3d 20 4d 73 3e 71 5d 74 3e 05 1f b4 be
       0.045040242 0.2375989 0.2386377 -0.35179916
0003f0 c6 75 19 3e f9 13 cc bd 85 cf 83 bd a0 90 20 3d
       0.14986333 -0.09964747 -0.064360656 0.039200425

sequential/dense_1/MatMul f4 [2, 8]
000000 5c e9 b8 3e 8e b1 bb bc 4d 10 2d bf 43 f2 fe be
       0.3611554 -0.022911813 -0.67603 -0.49794206
000010 02 03 ef be ab e9 2d bf fb 9a 2f 3e d8 de 65 be
       -0.46681982 -0.67934674 0.17148964 -0.2244829
000020 d9 e2 50 3f 67 be 1e 3f 4d 4a 26 be 02 4b 72 3d
       0.8159614 0.6200928 -0.16239281 0.059153564
000030 63 08 48 3e 30 98 e3 bd 7f 21 00 bf 69 d6 8c 3e
       0.1953445 -0.11113012 -0.5005111 0.27507332
