runtime_data/silver.tflite (tflite, 25552 bytes, 12 tensors)

sequential/conv2d/BiasAdd/ReadVariableOp f4 [16]
00000000: 88bb 15be 175f ec3d be62 183e aa15 493f
00000010: fbd3 10be 0665 113f 0f3f 013e 4c85 483f
00000020: 7e64 b4bd da3d 533d fb86 123e 60d6 873f
00000030: 36c6 26bf 3d9b c53e 7283 7d3e ef86 103f
-0.14622319 0.115415744 0.14881417 0.7854868 -0.14143364 0.56794775 0.12621711 0.78328395
-0.0880823 0.051572658 0.14309303 1.0612297 -0.65146196 0.38595 0.24757174 0.5645589

sequential/conv2d_1/BiasAdd/ReadVariableOp f4 [8]
00000000: 4980 9bbe 7760 1ebf 5d4a 063d 0cc2 92bd
00000010: ec06 b8be 67a7 76be e0f2 26bf ff78 61be
-0.3037131 -0.61865944 0.032785762 -0.07165918 -0.3594278 -0.24087296 -0.6521435 -0.22018813

sequential/conv2d/Conv2D f4 [16, 3, 3, 1]
00000000: 8410 c73e b10b 2ebb f000 363e 01fc 29be
00000010: fb48 a23d f70a ae3d 0b65 993e caf2 4d3d
00000020: 0f24 6b3e 5e35 883e 2ca1 2d3e fbc3 333e
00000030: 3b6f f2bd 8d50 983d fd0b 553d 1e6d bc3e
00000040: 3cb7 d1bc dad1 a63e 1306 43be 840d 4dbe
00000050: 078d 45be 3283 36be 9f98 0bbe 3d77 53be
00000060: 59fb 42be dc91 14be 7051 b0bd ca2c 80be
00000070: dc7f 81be 6714 273c 944d 623e 189f 72bd
00000080: c8cb b4be 89a5 203e 26ca 0ebe acd2 e83c
00000090: a88b e73e 47d7 e43d 3fcd 2c3c b2ec 50be
000000a0: d88d b1bc d233 0abe deed 87be cbe7 53be
000000b0: 83bf 22bd 0a5c 66be 17a6 513d 975d 4b3e
000000c0: 4082 403d b29b 0ebf fe1d bb3d c795 9c3c
000000d0: 9895 753d 5982 dd3d 3386 4abe a689 193e
000000e0: 3c33 04be 48bc bebe 83f6 81bd ff32 27be
000000f0: c1a9 3b3e 4b5b b1be de68 763d 67d1 b03e
00000100: a06c ba3e d444 093e 070e 38be 9986 60be
00000110: 89ad 3fbe 802b 1bbe fdc2 d6bd e948 243d
00000120: 9950 5b3e 7404 19be b755 e93d 3d5d a4be
00000130: db55 883e 35aa 8fbd 1ff3 943e 744a 3bbe
00000140: 215f 803d eccb 0c3e 4fb4 8b3d b326 6b3e
00000150: 82f6 8ebe 1be3 76be 486a ddbe d44d 3b3d
00000160: 1372 2f3e 6bf6 0e3e a0d5 7fbe b7ac e73e
00000170: 425c 0c3f 7f54 50be 286e 0b3d 544d 8c3c
00000180: bab3 d9bc 2191 bebc cc59 17bd 2439 5ebd
00000190: d6b8 8ebe 2070 6f3b 061a 36be 0954 44be
000001a0: 7ae7 a1bd 694b 603e aeed 113f d8af c13d
000001b0: 46b1 dcbe 24ef c8be d39c 56be 478d 533c
000001c0: b6a2 783d 272d 113c 0a4e 9e3e 0408 e63d
000001d0: 69e6 453e 6b41 253f 28f3 f03d c86b 783d
000001e0: 5e08 dd3d 2ae9 1ebe a7df 69be 769d 48bc
000001f0: 7485 ae3c 800c 38be c4ff 47be 9fbb 15bc
00000200: 4c31 10be 7b4f ad3e 1d23 0c3f 1428 503e
00000210: 3af2 59be 38c1 c83c db44 1abe 17cd 8f3d
00000220: 88c0 a03c 88c9 6cbd 79f7 cebd b06b 73be
00000230: cae8 bbbe f98d 243f bc76 4c3e e8d7 1a3c
0.38879788 -0.0026557262 0.17773795 -0.16600038 0.07924076 0.08498185 0.29959902 0.05028037
0.22962974 0.26603216 0.16956013 0.1755523 -0.11837622 0.07437239 0.052013386 0.36802
-0.025600068 0.3258198 -0.19045286 -0.20024687 -0.19292079 -0.17823485 -0.13632439 -0.20650955
-0.19041194 -0.14508766 -0.08609283 -0.2503417 -0.2529286 0.010197735 0.22099906 -0.059233755
-0.35311723 0.15688147 -0.13944301 0.028420769 0.45223737 0.111738734 0.010546981 -0.20402792
-0.021674082 -0.1349633 -0.26548666 -0.20693891 -0.03973342 -0.22496048 0.051183786 0.1985992
0.046999216 -0.5570632 0.0913658 0.019114388 0.059957117 0.108158775 -0.19777755 0.14993915
-0.1291017 -0.37253022 -0.063458465 -0.16328047 0.18326475 -0.34639964 0.060158603 0.3453476
0.36411 0.13405162 -0.17974101 -0.21926345 -0.18718542 -0.15153313 -0.1048641 0.040108595
0.21417464 -0.14943105 0.11393302 -0.32102385 0.26628003 -0.07014886 0.29091737 -0.1829012
0.062681444 0.13749665 0.068215005 0.22963981 -0.27922446 -0.24110071 -0.4324515 0.04572852
0.1713336 0.13961188 -0.24983835 0.45248958 0.54828274 -0.20344733 0.0340406 0.017126717
-0.026574958 -0.023262562 -0.03695087 -0.054253712 -0.27875394 0.0036535338 -0.17783365 -0.19172682
-0.07905479 0.21903767 0.57003295 0.09457368 -0.43104 -0.3924495 -0.20958261 0.012912101
0.06070205 0.008860863 0.30918914 0.112319976 0.19326176 0.64552945 0.117651284 0.060649663
0.107926115 -0.15518633 -0.22839223 -0.012244573 0.02130387 -0.17973518 -0.1953116 -0.009138971
-0.14081305 0.338497 0.5474108 0.20327789 -0.21283808 0.024506196 -0.15065329 0.0702154
0.019623056 -0.057809383 -0.101057954 -0.23771548 -0.3670104 0.64279133 0.19967169 0.00945089

sequential/conv2d_1/Conv2D f4 [8, 3, 3, 16]
00000000: 44f5 fd3e 9d8b 033f d63b ce3b 0ef3 c73e
00000010: c433 293e ad25 fe3d 804e c5bc fe16 c7ba
00000020: 33c4 8f3e f573 6c3d 5a51 743e fcd2 7dbe
00000030: cb10 f1bd 36e7 5abd 2180 e33d d238 ff3d
00000040: 0f6f 883e a377 ca3d f5e8 89bd 1e66 a43d
00000050: 225f a83d 8259 6abe 2864 023e ea84 07bf
00000060: 9412 aa3e 75bc a1bd 725d 183e 46ea 04be
00000070: ad5c aebd 41c9 babd fed0 3b3d a08f 8fbe
00000080: d8af 493e 237f 483e c22a e0bd 5d4e c1be
00000090: 5916 3cbe 65f1 f13e 6a0c 5bbd 665d cebe
000000a0: dab8 803e c1ed f23c bb89 02be e333 70be
000000b0: 7df9 31bb 1958 b73e 7c83 613e 5690 953d
000000c0: 44dd ad3e fd1a 9e3e 300d 8f3e 2a1e b5be
000000d0: 7457 c33e 2e77 eb3e 9b00 bfbd 9a44 3ebe
000000e0: d697 a23e 2f9a ae3d 4f24 313e fc85 323d
000000f0: b4ed c53d 1ab3 acbe 6b6f 633e 8804 dbbe
00000100: 74f6 b23e d74a 8e3e aa6e 763e 1196 9f3e
00000110: d99b 403e 44d9 833d 37d3 c93d 7f25 d2be
00000120: 4edb 083e 4804 bbbe 579e cd3d c7c1 80bd
00000130: 8aa6 823e 4e36 a0be 248b fa3d 9155 7ebe
00000140: a89b f53d f504 393d 31c8 9b3e 2eb0 663e
00000150: d3b0 293e cae5 ab3e d6c1 5fbe 12b2 c9be
00000160: 3aa5 1a3e a495 d5be 93a0 88bd eed3 1bbe
00000170: 1676 1b3c 56b7 533a 93c0 1e3d 88aa 27be
00000180: 6e59 1b3e 706a 5fbc 3a79 373e 1ab9 903d
00000190: 5f11 56bd 2fd9 203e ef76 20be d5b7 82be
000001a0: c9e4 973c 48ad 793e 1e87 f6bd 98f1 5cbe
000001b0: 94cd 4fbe adbb 08be 2aa9 03be 43a9 ec3c
000001c0: 84b9 c73d 91e2 b63d f8ad ce3e 9944 473b
000001d0: 698b 59be b0a8 a1be d0c4 99be 3f3f 06be
000001e0: be7a 8e3e a74e 933e 05ef acbe e93f b7be
000001f0: 6e93 a6be 0c18 9cbe 54ce 0bbd cf05 943e
00000200: d3fc 6abd 90e6 6d3e 32a7 8c3e f6fb 66bd
00000210: a20f 2f3e 729d 9b3e 53d0 cebd 1aa6 513e
00000220: 1760 123d cd70 2e3d 6d6e 1abe 8fc4 b9be
00000230: 28ca 8abe e30a 57be 2503 f53d 266a 773e
00000240: 037e 86be 7d1d ebbd 333a 4f3f fca5 933e
00000250: 8a79 003e b598 90be 1df9 9abe dbcd 9d3a
00000260: 4d73 9bbd d6bf 12bd de6f 823e 3375 a63d
00000270: f506 e8bc 5f3f ab3c c34d 933e ea44 36be
00000280: bbb6 1ebd e797 09bd 365a c23e 9d76 b63d
00000290: d26a c83e 0534 4b3e aee6 e13b 1f7b 3b3e
000002a0: 008b f43d 49bd 8c3c dbca cb3e 5745 1b3f
000002b0: 0ec5 8fbe 6d67 f03e 23cb 393f 051f be3e
000002c0: cab5 10be 2479 0bbd 536d 0e3f 8bf6 8bbe
000002d0: 4500 a33e 2bbc d8bd 67c5 ed3d 7243 ad3d
000002e0: 7e03 1abe eb36 febd c402 943e 7b8d 5d3e
000002f0: 9dfe 06bf 5ed4 0f3e 66ac 083f 0d7b d23e
00000300: eb36 88be 2712 29be 0c92 cb3e 7455 05bf
00000310: e472 03be f7dc 2dbc ab02 9dbe 3f62 de3d
00000320: 1699 49be 682e 163d 70ac dd3e 4ba3 8f3c
00000330: 7342 723e a8bd 74bd bb02 c03d dc1c 32be
00000340: 61c0 313e d2c8 983e 5a87 6b3e 4a90 383e
00000350: 57fa a7bd 7dcd 2bbe 9b69 87be 9944 25bd
00000360: 9f27 a73e d3cd df3c 9f5b 123f 855b aa3e
00000370: 2fc7 123d a9de 613e 2a35 0b3f 3057 ab3e
00000380: 60ba 003d b62b acbd b4c8 743e 37ed a03d
00000390: 0aea 86be 4f70 90be 910a 003e b9b8 103d
000003a0: bc1d 9abc 26d8 a93d 370d dfba 077b 563e
000003b0: 3531 e93c a7db 1dbd 0d69 ec3e 57ef 4e3e
000003c0: d9ae 94be cc3f b3bd 7fa7 343e cf1d 1f3d
000003d0: 233e 30be a542 f33c f901 3c3d 24e7 57be
000003e0: 5bab b3be 588d 6f3e cb32 0dbd 2432 fe3d
000003f0: 149a aabe 928c 8cbe 6c90 b13d 236d 01be
0.49601185 0.5138491 0.006293754 0.39052624 0.16523653 0.1240953 -0.024085283 -0.0015189347
0.28079376 0.057727773 0.23859158 -0.24787515 -0.11770781 -0.053443156 0.11108423 0.124620095
0.2664723 0.098861 -0.06733886 0.0802729 0.0822127 -0.22885707 0.12733519 -0.52937186
0.332173 -0.078972735 0.14879397 -0.12979993 -0.0851377 -0.091204174 0.045853607 -0.28039265
0.19695985 0.19579749 -0.109456554 -0.377551 -0.183679 0.47254482 -0.053478636 -0.40305632
0.2514103 0.029654386 -0.12747853 -0.23457293 -0.0027156763 0.358094 0.22022814 0.073029205
0.33957875 0.30879965 0.2793975 -0.35374576 0.3815266 0.45989364 -0.09326287 -0.18580857
0.31756467 0.08525502 0.17299007 0.04358481 0.09664479 -0.33730394 0.22210471 -0.42776895
0.34953654 0.27791473 0.24065652 0.3116918 0.18809451 0.064379245 0.09854739 -0.41044232
0.13364908 -0.36526704 0.100399666 -0.0628696 0.25517684 -0.3129143 0.1223357 -0.24837328
0.1199258 0.045170743 0.3042617 0.22528145 0.1657136 0.33573753 -0.21851286 -0.3939367
0.15102091 -0.4171573 -0.06671252 -0.15217564 0.009488603 0.00080763304 0.03875787 -0.16373646
0.15170833 -0.0136362165 0.17917338 0.07066555 -0.05226266 0.15707849 -0.1567037 -0.25530878
0.01854171 0.24382508 -0.1203749 -0.21576536 -0.20293266 -0.13352843 -0.128575 0.028889304
0.09752181 0.08929933 0.40367103 0.0030405878 -0.21244587 -0.3157401 -0.3003297 -0.13110064
0.2782802 0.28770944 -0.33776107 -0.35790947 -0.32534355 -0.30487096 -0.034132317 0.28910682
-0.05737002 0.23232484 0.2747131 -0.056392632 0.17095807 0.3039356 -0.100983284 0.20473519
0.03573617 0.042588044 -0.15081187 -0.36282775 -0.27107358 -0.21000247 0.119634904 0.24161586
-0.26268014 -0.11480234 0.8094818 0.28837574 0.12546363 -0.28241506 -0.30268183 0.0012039499
-0.07590351 -0.03582748 0.25475973 0.08127823 -0.02832363 0.020904241 0.28770265 -0.17799726
-0.038748484 -0.03359213 0.3795945 0.089093424 0.39143997 0.19844063 0.0068939542 0.18308686
0.11940575 0.017180102 0.39803204 0.6065268 -0.28080028 0.46953908 0.7257559 0.3713304
-0.14131847 -0.034051076 0.55635566 -0.27336535 0.31836143 -0.10582765 0.11609917 0.0846013
-0.15040395 -0.124128185 0.2890836 0.21636002 -0.5273226 0.14045855 0.5338806 0.41109505
-0.266044 -0.16510831 0.39759862 -0.52083516 -0.12836796 -0.010611764 -0.30666098 0.10858583
-0.19687304 0.03666535 0.43295622 0.017533919 0.23658161 -0.059751183 0.09375521 -0.17393821
0.17358543 0.29840714 0.23000851 0.18023792 -0.082020454 -0.16777606 -0.26447758 -0.040348623
0.32647416 0.027319824 0.5717105 0.3327295 0.035834488 0.22057594 0.54377997 0.33464956
0.03142774 -0.08406775 0.23904687 0.07857745 -0.26350433 -0.28210685 0.12504031 0.035332415
-0.018813007 0.0829318 -0.0017017488 0.20945369 0.028465847 -0.038539555 0.46173897 0.20208488
-0.29039648 -0.08752403 0.1764202 0.038846787 -0.17211203 0.029694865 0.04590032 -0.21084267
-0.3509167 0.23393762 -0.034472268 0.12411907 -0.33320677 -0.27450997 0.086701244 -0.12639289

sequential/dense/BiasAdd/ReadVariableOp f4 [8]
00000000: 2251 fbbd 7d78 33be b5ef d0ba 35eb 97bd
00000010: 5b94 42be 029c a83d 7a08 b0be 20f2 6abe
-0.12271334 -0.17526431 -0.0015940579 -0.07417909 -0.19001906 0.08232881 -0.34381467 -0.22943926

sequential/dense_1/BiasAdd/ReadVariableOp f4 [2]
00000000: d6e4 bb3e ffe4 bbbe
0.36698025 -0.36698148

sequential/batch_normalization/FusedBatchNormV3 f4 [16]
00000000: 4f2a 8b3c d863 4b3c 1d75 fb41 921c 0140
00000010: 5306 5c3e 984d 143f a68c bc41 4985 093e
00000020: 44f0 3b3d 49da ff3e 419f 183d b707 823d
00000030: af3a a33d 453c 1d3d e275 703d 6495 743d
0.016987948 0.012413941 31.432184 2.0173688 0.21486787 0.579309 23.568676 0.1342975
0.045883432 0.49971226 0.03726125 0.06349128 0.079701774 0.038387556 0.05870617 0.059712783

sequential/batch_normalization/FusedBatchNormV31 f4 [16]
00000000: 0f43 04c0 1c52 f2bf c820 65bf b40f 293e
00000010: 3182 17be 2419 5ebd becd 973e ea76 85bf
00000020: c0b0 acbf d18f b1bd 22ac 30c0 2e76 b8bf
00000030: 300c 383c 50e3 01c0 f97b 5cc0 9ba0 ddbf
-2.066593 -1.8931308 -0.89503145 0.16509897 -0.14795758 -0.054223195 0.29649156 -1.0426915
-1.349144 -0.08670009 -2.7605062 -1.4411066 0.0112333745 -2.029499 -3.4450667 -1.7314638

sequential/batch_normalization_1/FusedBatchNormV3 f4 [8]
00000000: e50c 973e 7abd ab3e 6992 763f aff6 013f
00000010: 9e58 a43e c518 333f c517 0140 89ce 063f
0.29502025 0.33542997 0.96317154 0.50767034 0.3209886 0.6995967 2.0170758 0.526589

sequential/batch_normalization_1/FusedBatchNormV31 f4 [8]
00000000: aad1 17bf f81d bfbe cebc b0be f1d4 30bf
00000010: 0471 babe af8c 6fbe 2bff aebd b656 c6be
-0.59304297 -0.37327552 -0.34519047 -0.6907492 -0.3641435 -0.2339351 -0.08544763 -0.3873803

sequential/dense/MatMul f4 [8, 480]
00000000: 0b40 c2be d92c 21be 127b 863d de0e d6bd
00000010: 732d 4bbd e952 93bd 1a14 ae3e 7a80 843c
00000020: dacc babe a613 163b 4770 533e 4485 bfbd
00000030: b53e e83c 0b81 0d3e 0ceb cc3e ef0e 373d
00000040: 01af 7ebe fc76 993d a735 2e3e d45a e3bd
00000050: efb0 513c 6a18 e93d 6937 cf3e c7f4 c03d
00000060: bbb5 a3be 1022 643d 36b6 903d f2d4 ddbe
00000070: 9ae8 b2bc 6783 9dbd c932 9e3e 271f cb3d
00000080: cce5 b4be 6a06 0bbb cdab 4bbc 8479 02be
00000090: 1272 4fbd d754 0bbe dd0f 1d3e e37c 543e
000000a0: 23f1 f2bd 2cc7 19be 4318 ac3d eb99 f6bd
000000b0: 4c75 94bd 329f 493d 5667 103e 8c7e fd3d
000000c0: 645d 5abe 6df9 18be c301 373e 2dd1 debd
000000d0: 2ea6 d83c edee ea3d 73aa 8d3e ed72 6a3d
000000e0: ff2e afbe 3bef 6dbe 3b27 723e 747f 98bd
000000f0: d330 c6bc 42c1 e5bc f227 9c3e 3556 a5bd
00000100: 1f8e c1be 533e 4dbe 0527 1c3e 6c73 c9bd
00000110: 7e72 11be 8083 833c d4c1 333e 7d62 84bd
00000120: d2a2 4bbe 70d4 93be bfeb e13e 2182 c43d
00000130: 36be d3bd e81b 4d3e 5f3c 413e 652d 4a3e
00000140: 2ac7 0ebe b5d6 e63d 5254 9d3e de7b bd3e
00000150: eb6a c63e 65fa 6fbb efd6 613e aa87 4e3e
00000160: c9c0 a2be d59a 8c3e ce13 863e 8b62 623e
00000170: 0e96 f93b 1782 943e 56ea e23e c57f 44be
00000180: 2abd 00be 3311 7a3e 18c7 663e bff7 273d
00000190: 66cd 893c d493 873e 49eb c23e 777a 01be
000001a0: c04b 493e bc8d ed3e b058 c33d 5ef6 a5bd
000001b0: df1f fa3c 3573 2b3e bd44 1a3e 32ae 423e
000001c0: 36e3 973e c924 1a3e 8a0b 3fbd 7d42 bfbe
000001d0: 4137 303e f8f6 443e 5852 c6bd 82b0 a73e
000001e0: df94 f03d 1c28 003d a947 67be fa5f e4be
000001f0: e47b 843c ba20 5d3e d548 9f3d d20c 9a3e
00000200: b140 683d c8fd ec3d 8d04 ba3d 59da 853d
00000210: 2cab cfbd af6e 523e a985 6a3d 9e87 6b3d
00000220: d9c0 c53d 0cef 88bb 562a 9f3e 1bb8 853c
00000230: 1991 b9bb ae9f 5f3e d25f 99be a509 0ebe
00000240: e01b 87be 9f93 c1bd 2673 4f3e ead0 853e
00000250: 6ecc 5bbc a74f 163e abfe bdbd 2c7a 3fbe
00000260: 3a05 d2bd a3e7 30be 2d58 3e3e 0b5b bf3e
00000270: eaa7 473e 1115 b93d d75c f73d 6760 b0bd
00000280: 6893 b8be 36d7 54be c139 863e c128 a53e
00000290: ef21 5c3e 92a3 603e 99a6 62bc 5835 293d
000002a0: bcb0 24be e5bb 9b3c 1cfd 753e 9810 853c
000002b0: 39ee 04be b3a8 673e 2d9c 293d 58ad 6ebe
000002c0: eb12 123e 0587 283d 9207 ad3d b502 6dbe
000002d0: a300 8b3d a85d ac3d c17e 193e 7926 273e
000002e0: bb38 ef3d c76d ce3d 584c 253e ea8d e8bd
000002f0: aace dc3d b279 e13d 78ba 333e 5dc8 a23e
00000300: 5337 023e 14c0 923e b656 93be d35b cebe
00000310: 00de 233e 1bc3 1e3e 3daf 3a3e 1627 af3e
00000320: e72b 053e 1329 a23e f8ae d2be ed9f 1dbf
00000330: 0c5a 263e 63d2 043e 688f 653d bee8 853e
00000340: 1719 bc3d eb9a 8f3d b84a 013d 2a3c 95bd
00000350: c271 44bd ae64 853e 8d69 2e3d 0de8 923e
00000360: 2334 2f3e b4b4 cfbe cab8 c13d 8929 773d
00000370: c90c 643e f609 983c 6754 4abb 21b6 d7bd
00000380: f358 b2bd b244 2fbe f21d 9e3e 40e0 7d3c
00000390: c16f 253e 5f0a 423d 7a5d 97bd 2fef 07be
000003a0: ff8a cdbd 45f1 05be 0b25 ee3e 5469 db3e
000003b0: f002 963e 7a04 123e df81 793c eea1 53be
000003c0: 58d1 68bd fb66 99bc e035 3a3d 6652 8c3e
000003d0: 09f5 acbd 811f e13d 5e14 653e f5f0 3fbe
000003e0: e112 bd3e 35db cb3c 446c 83bc e046 3e3e
000003f0: 3692 30bd 2e8f 213d 8e40 f0bd 0934 be3b
-0.37939486 -0.15739764 0.065664425 -0.104520544 -0.04960389 -0.07193548 0.3399971 0.016174544
-0.36484414 0.0022899895 0.20648299 -0.0935159 0.028350214 0.13818757 0.40023077 0.044691976
-0.24871446 0.074933976 0.17012654 -0.111013085 0.012798532 0.1138161 0.40471962 0.094216876
-0.31974587 0.055696547 0.07066004 -0.43326527 -0.021839429 -0.07691079 0.3089812 0.09918051
-0.3533157 -0.002121354 -0.012431097 -0.12741667 -0.050645895 -0.13606583 0.15338083 0.20750766
-0.118623994 -0.15017384 0.08403065 -0.12041076 -0.07248935 0.049224086 0.1410192 0.123776525
-0.21324688 -0.14938898 0.17871766 -0.10879741 0.026446428 0.11471353 0.27669105 0.057238508
-0.34215543 -0.2323579 0.23647778 -0.07446185 -0.024193203 -0.028046254 0.30499226 -0.08073083
-0.37803742 -0.20043306 0.1524926 -0.09836468 -0.14203832 0.016053915 0.17554408 -0.06464098
-0.1988633 -0.28873014 0.44125172 0.095951326 -0.10339014 0.20030177 0.18870686 0.19743879
-0.13943163 0.11271421 0.30728394 0.37008566 0.38753447 -0.0036617753 0.22054647 0.20168939
-0.31787708 0.27461877 0.26186985 0.22107904 0.007616765 0.290055 0.4431941 -0.19189365
-0.1257216 0.24420623 0.22536886 0.041007753 0.016821574 0.2647997 0.38070133 -0.12644373
0.19657803 0.46397197 0.095384 -0.081036314 0.030532775 0.16743167 0.15065284 0.19011763
0.29665536 0.15053095 -0.046641864 -0.37355414 0.17208578 0.19234836 -0.096836746 0.32751852
0.11747145 0.03128825 -0.2258593 -0.44604474 0.016172357 0.21594515 0.077775635 0.30087906
0.05670232 0.115718424 0.09082899 0.06535787 -0.1014007 0.20550035 0.057256375 0.05750238
0.096559234 -0.0041788872 0.31086987 0.01632314 -0.005663049 0.21838257 -0.29955918 -0.13870867
-0.26388454 -0.094519846 0.2025877 0.2613595 -0.013415439 0.14678822 -0.0927709 -0.18698949
-0.10254903 -0.17275862 0.18588324 0.37374148 0.19497648 0.09037221 0.12078255 -0.08612137
-0.36049962 -0.20785221 0.26215938 0.32257655 0.2149732 0.21937397 -0.013833665 0.04131064
-0.16083044 0.019010494 0.24022335 0.016243264 -0.129815 0.22622947 0.041408706 -0.23308313
0.14265029 0.04114439 0.084487095 -0.23145564 0.06787231 0.08416301 0.14989759 0.1632327
0.11680742 0.10079532 0.16142404 -0.11355193 0.107816055 0.1100954 0.17551601 0.3179349
0.12716417 0.2866217 -0.28777093 -0.4030443 0.16002655 0.15504114 0.1823091 0.34209508
0.13005029 0.31671962 -0.41149116 -0.6157215 0.16245288 0.12970881 0.056044966 0.2615413
0.09184473 0.0701197 0.031565398 -0.07286866 -0.04796005 0.26053375 0.04258113 0.28692666
0.17109732 -0.40567553 0.09459074 0.060342345 0.22270502 0.018559437 -0.0030873062 -0.10532785
-0.08708372 -0.17116049 0.3088222 0.01549536 0.16155912 0.047373172 -0.07390876 -0.13274835
-0.10036277 -0.13080318 0.46512637 0.42853796 0.29299116 0.1425952 0.015228718 -0.2066724
-0.05684027 -0.018725863 0.045461535 0.27406615 -0.08445174 0.10992337 0.2237105 -0.18744262
0.36928466 0.0248848 -0.016042836 0.18581724 -0.043108188 0.039443187 -0.11731063 0.005804543

sequential/dense_1/MatMul f4 [2, 8]
00000000: 8363 9b3e f825 b73d ffcd bdbe 0b97 3bbf
00000010: a9e9 5b3e 3f48 fd3e 47ba b23c ca4b f4be
00000020: 75d2 ccbe 7a27 003f f320 023e 20a4 1bbe
00000030: 59e2 3c3f 8d12 42be a42b 003f 696e a83e
0.3034936 0.08942789 -0.37071225 -0.7327735 0.21475853 0.49469182 0.02181734 -0.47714072
-0.40004316 0.50060236 0.12707882 -0.15199327 0.7378288 -0.18952389 0.5006659 0.32896736
