runtime_data/silver.tflite (tflite, 21132 bytes, 8 tensors)

sequential/conv2d/Relu;sequential/conv2d/BiasAdd;sequential/conv2d_1/Conv2D;sequential/conv2d/Conv2D;sequential/conv2d/BiasAdd/ReadVariableOp f4 [4, 5, 5, 1]
-0.0013977115 -0.00095813535 -0.00047630398 0.0010686159 0.001501835 -0.0028498603 -0.0029698515 -0.0022241485
-1.9711313e-05 0.0014428848 -0.0014221107 -0.000980442 -0.0010594812 0.001194841 0.00050531555 -0.0014911166
-4.8994075e-06 -1.6715363e-06 0.0008789531 0.0003391816 -0.00075028214 0.00018951544 -0.00048322248 0.00032359938
0.00020716355 0.00070489175 0.0017531551 -0.0006438698 -0.0019340276 -0.0023793657 0.0007188119 0.00032060672
-0.0018364498 -0.003283865 -0.00191807 0.0012005331 0.00038373045 -0.0010547696 -0.0011105074 -0.00040384184
0.0010030321 0.0005455079 -3.1184536e-05 -0.0010139785 -0.0010579925 0.00093805854 0.0002344334 0.0003568723
-0.0009782155 -0.0011042249 0.0005396076 0.0019470829 0.000852974 0.0025597035 -0.00019104096 -0.00060440664
-0.0007804095 -0.0016650927 0.00019341336 -0.0010661546 -0.00018325256 -3.5977857e-05 -0.0010194527 0.001024012
-0.00045300167 -9.78917e-05 -0.0006920693 -0.00019757701 0.0009731382 -0.00094137853 0.00015665812 0.0008841578
-6.516512e-06 0.0009768035 0.00049502705 0.0004921127 -0.0002547661 -0.0005850298 -0.0009932063 -0.00038059658
-0.00086411095 -0.000812532 -0.0007602462 0.0005609296 -0.00070046604 0.0010557899 -5.610777e-05 -0.00045391574
-0.0011270731 -5.1726114e-05 -0.0008380901 0.0003130416 -0.00017075572 0.0014204201 0.0010687184 0.0006924772
5.166406e-05 -0.00027630784 1.9867193e-05 -0.00013549131
00000000: 6a33 b7ba 602b 7bba 70b8 f9b9 cd10 8c3a
00000010: 38d9 c43a b9c4 3abb d7a1 42bb 05c3 11bb
00000020: b959 a5b7 2e1f bd3a 1e66 baba 2d82 80ba
00000030: 4ade 8aba 369c 9c3a 2777 043a 9271 c3ba
00000040: 9765 a4b6 8d59 e0b5 8b69 663a 2fd4 b139
00000050: 95ae 44ba aab8 4639 0659 fdb9 c6a8 a939
00000060: 0b3a 5939 7cc8 383a 20ca e53a 5fc9 28ba
00000070: 337f fdba 22ef 1bbb a66e 3c3a 1b17 a839
00000080: 08b5 f0ba 1d36 57bb c067 fbba 355b 9d3a
00000090: 6e2f c939 3240 8aba 728e 91ba bcba d3b9
000000a0: 2c78 833a 6a00 0f3a 24cc 02b8 79e7 84ba
000000b0: 56ac 8aba 0be8 753a 3dd2 7539 971a bb39
000000c0: 7737 80ba a4bb 90ba 7474 0d3a 4335 ff3a
000000d0: 1e9a 5f3a b3c0 273b 2b52 48b9 0b71 1eba
000000e0: 6594 4cba 3d3f daba 01cf 4a39 36be 8bba
000000f0: 7c27 40b9 eee6 16b8 289f 85ba 2438 863a
00000100: db80 edb9 354b cdb8 fc6b 35ba ad2c 4fb9
00000110: 331a 7f3a d8c6 76ba 9844 2439 d3c6 673a
00000120: 69a8 dab6 1608 803a b4c4 013a 2001 013a
00000130: 2192 85b9 af5c 19ba 792e 82ba cf8a c7b9
00000140: 8185 62ba 1900 55ba 424b 47ba 590b 133a
00000150: 7b9f 37ba 6e62 8a3a 4255 6bb8 8afb edb9
00000160: 4cba 93ba 7ef4 58b8 46b3 5bba bb1f a439
00000170: e40c 33b9 642d ba3a 3d14 8c3a 5c87 353a
00000180: ddb1 5838 69dd 90b9 79a8 a637 ac12 0eb9

sequential/conv2d/BiasAdd/ReadVariableOp f4 [4]
0.14251734 0.16101888 -0.32103357 0.2723929
00000000: 11f0 113e 22e2 243e 835e a4be 1577 8b3e

sequential/conv2d_1/BiasAdd/ReadVariableOp f4 [4]
-0.20195962 -0.46025527 -0.18961647 -0.14745097
00000000: 81ce 4ebe 94a6 ebbe d22a 42be 63fd 16be

sequential/conv2d_1/Conv2D f4 [4, 5, 5, 4]
-0.040077694 -0.480889 -0.14945313 -0.06270608 -0.25250384 -0.48354465 0.060753006 -0.2636493
-0.39062876 -0.5055253 -0.57067466 0.14832455 -0.0085526835 -0.6367684 -1.0738368 0.16059554
-0.05477122 -0.050542098 -1.2895586 0.08130483 -0.22532602 0.15624101 0.9181598 0.0009234919
0.47344986 -0.21200474 0.7292072 -0.1825956 0.21228065 -0.50528204 0.23969126 -0.12095012
-0.11032446 -0.72710997 -0.09844487 -0.008957358 -0.21751848 -0.124960735 -0.6106154 0.087554574
-0.020413551 -0.37291583 0.5158401 -0.032681987 0.06074436 -0.6354866 0.17157955 0.12330341
-0.11264666 0.008275636 0.07794599 0.18666258 -0.21522371 -0.19597612 -0.34815705 0.36156982
-0.10745605 -0.1608437 -0.27545363 0.26518214 0.23489888 0.28035733 -0.027798885 -0.2336652
-0.084938414 -0.08063678 0.12241888 -0.13238248 0.41786173 0.409852 0.06350092 -0.07149976
-0.06374446 0.13263565 0.031923153 -0.030022237 0.13929975 0.32072195 0.33511475 -0.03859345
0.13646454 0.049646102 -0.39911458 -5.1267853e-06 -0.074323244 0.039974865 0.12029305 -0.09587911
-0.053165346 0.15204869 0.43053642 -0.37790057 0.018029137 -0.23827234 0.10993501 0.13617814
0.058888618 -0.044908784 0.27549726 0.009784824 -0.29125488 -0.42596456 -0.48548156 0.2786115
-0.9118452 -0.6647525 -0.052221175 0.014746229 -0.2671235 -0.30807778 0.4639799 0.013096658
-0.24144761 0.36817127 0.96648216 0.05885125 -0.79546833 0.12618543 0.32037598 0.1336707
-0.7462177 0.027766215 -0.4376171 0.44244742 -0.27433577 -0.018882815 0.13015015 0.07233595
0.027328389 -0.080589496 0.5197833 0.07184726 -0.16727361 0.02995114 0.5551381 0.1932902
0.018709444 -0.17167455 0.47338456 0.20716329 -0.5778522 0.07514018 -0.76324445 0.019991677
-0.06203786 0.0642422 0.1338727 -0.40323666 0.08474431 0.25027123 -0.17290866 -0.3576463
-0.5324197 -0.25632504 -0.29911673 0.045952417 0.20223814 0.10590138 0.18115753 -0.20153056
0.0017780139 0.31719634 -0.5165894 0.1634356 0.13385871 -0.016646823 0.1536119 -0.22698933
0.08907171 0.2791399 0.1376544 0.033093784 -0.31485167 0.09164794 0.031503554 0.071957044
0.30560634 0.12013818 0.2507399 -0.14754601 -0.011444772 -0.22903666 -0.09693326 -0.16664055
0.18655856 0.67468786 0.12810121 -0.1535012 0.009713623 -0.30338272 0.29086167 -0.04197672
0.42278644 0.14643538 0.31671676 -0.10483147 0.041068103 0.051798545 0.12590623 -0.11873644
0.26968253 0.123073384 0.08362634 -0.18045333 0.4846548 -0.6158166 0.2288458 -0.15211105
0.13019958 -0.20357512 0.30787677 -0.6717388 -0.47950068 -0.10383544 0.23912738 -0.2586373
-0.82970333 -0.049394775 -0.16476521 -0.050799742 0.20029609 0.4714848 0.16362143 -0.0036307937
-0.16486299 0.105285965 -0.114597216 -0.18614799 0.2362421 -0.18752803 0.09471631 -0.27403232
0.48705366 0.074267276 0.43140036 -0.095184416 0.32536677 0.01806451 0.14276502 0.3577429
-0.24393421 -0.078565754 0.29109287 -0.8947989 -0.18975775 0.44970024 -0.057763737 -0.86471736
-0.032839198 -0.07466569 0.036508244 -0.7174463 0.60459954 0.010956378 0.002026826 -0.6055736
00000000: 8228 24bd 1537 f6be 3e0a 19be 0c6c 80bd
00000010: 2f48 81be 2a93 f7be 25d8 783d 0bfd 86be
00000020: 7e00 c8be 1b6a 01bf bc17 12bf 64e2 173e
00000030: 8e20 0cbc 4103 23bf 7c73 89bf 2873 243e
00000040: c957 60bd 3b05 4fbd 4210 a5bf 2683 a63d
00000050: ddbb 66be a5fd 1f3e 850c 6b3f 7e16 723a
00000060: 0568 f23e c517 59be 53ad 3a3f 57fa 3abe
00000070: 1960 593e 2a5a 01bf a071 753e b2b4 f7bd
00000080: caf1 e1bd e123 3abf 779d c9bd e2c1 12bc
00000090: 2abd 5ebe 6aeb ffbd 4a51 1cbf d04f b33d
000000a0: 523a a7bc d3ee bebe 190e 043f 8cdd 05bd
000000b0: 14cf 783d 40af 22bf 8db2 2f3e 8086 fc3d
000000c0: 4bb3 e6bd 8896 073c 26a2 9f3d 7a24 3f3e
000000d0: 9b63 5cbe f7ad 48be a441 b2be ae1f b93e
000000e0: eb11 dcbd 36b4 24be 4208 8dbe f4c5 873e
000000f0: 5589 703e ff8a 8f3e 7dba e3bc ee45 6fbe
00000100: 31f4 adbd e524 a5bd c0b6 fa3d 468f 07be
00000110: f9f1 d53e 1fd8 d13e c50c 823d 776e 92bd
00000120: 758c 82bd a4d1 073e dac1 023d 32f1 f5bc
00000130: 98a4 0e3e ab35 a43e 2994 ab3e 2a14 1ebd
00000140: 5cbd 0b3e b659 4b3d bf58 ccbe c006 acb6
00000150: c936 98bd afbc 233d 345c f63d 445c c4bd
00000160: e8c3 59bd a7b2 1b3e 456f dc3e 2f7c c1be
00000170: d7b1 933c aafd 73be 9b25 e13d 4872 0b3e
00000180: 3135 713d 46f2 37bd fa0d 8d3e 8750 203c
00000190: 5c1f 95be 0718 dabe 0a91 f8be 2ba6 8e3e
000001a0: b06e 69bf 382d 2abf dfe5 55bd 2b9a 713c
000001b0: 69c4 88be 5fbc 9dbe c68e ed3e 5d93 563c
000001c0: 0b3e 77be f280 bc3e 606b 773f 020e 713d
000001d0: d0a3 4bbf c136 013e 5208 a43e f9e0 083e
000001e0: 2008 3fbf f975 e33c 590f e0be 7888 e23e
000001f0: bd75 8cbe 22b0 9abc 1546 053e df24 943d
00000200: c9df df3c 1b0c a5bd 8510 053f a824 933d
00000210: c649 2bbe 185c f53c 881d 0e3f deed 453e
00000220: 8c44 993c 74cb 2fbe 765f f23e 9d22 543e
00000230: 1fee 13bf 18e3 993d fd63 43bf 96c5 a33c
00000240: 691b 7ebd 6a91 833d ed15 093e 0975 cebe
00000250: 6d8e ad3d 8d23 803e f80e 31be 6a1d b7be
00000260: a84c 08bf 093d 83be d425 99be 9a38 3c3d
00000270: 8417 4f3e d3e2 d83d 5c81 393e 075e 4ebe
00000280: 3f0c e93a 8f67 a23e 343f 04bf a95b 273e
00000290: 4212 093e eb5e 88bc 704c 1d3e e46f 68be
000002a0: 3b6b b63d 6deb 8e3e 46f5 0c3e 598d 073d
000002b0: 3d34 a1be eab1 bb3d df09 013d 375e 933d
000002c0: 6f78 9c3e 020b f63d fb60 803e 4d16 17be
000002d0: da82 3bbc 9688 6abe f284 c6bd d2a3 2abe
000002e0: 3509 3f3e 58b8 2c3f f72c 033e 6b2f 1dbe
000002f0: e325 1f3c fb54 9bbe d2eb 943e c8ef 2bbd
00000300: 7777 d83e 28f3 153e b328 a23e e2b1 d6bd
00000310: 0737 283d b62a 543d 90ed 003e 172c f3bd
00000320: d413 8a3e e60d fc3d 4944 ab3d c2c8 38be
00000330: ad24 f83e 28a6 1dbf 8e56 6a3e 00c3 1bbe
00000340: 0a53 053e ff75 50be 06a2 9d3e 13f7 2bbf
00000350: 1d81 f5be ada7 d4bd cfdd 743e 1c6c 84be
00000360: 7067 54bf 2d52 4abd 36b8 28be 6413 50bd
00000370: 6b1a 4d3e 7566 f13e 608c 273e 9cf2 6dbb
00000380: d8d1 28be 2ba0 d73d f2b1 eabd 949d 3ebe
00000390: 73e9 713e 5907 40be a0fa c13d f74d 8cbe
000003a0: 195f f93e 7119 983d 82e0 dc3e 0cf0 c2bd
000003b0: 7996 a63e 06fc 933c fe30 123e 142a b73e
000003c0: e4c9 79be 15e7 a0bd 200a 953e 8a11 65bf
000003d0: db4f 42be 1c3f e63e ab99 6cbd 1e5e 5dbf
000003e0: 6582 06bd 53ea 98bd ab89 153d 90aa 37bf
000003f0: 09c7 1a3f 6182 333c 7fd4 043b df06 1bbf

sequential/dense/BiasAdd/ReadVariableOp f4 [16]
0.042750027 0.43644848 0.13322581 0.27348763 0.51443934 -0.3648893 0.083033726 0.43415758
-0.20653124 -0.257012 0.3204521 -0.13033663 -0.22287501 -0.25756648 -0.13358384 0.0997007
00000000: a71a 2f3d 2d76 df3e 596c 083e 9206 8c3e
00000010: 4cb2 033f c5d2 babe 960d aa3d e749 de3e
00000020: ed7c 53be 1497 83be 4c12 a43e f776 05be
00000030: 5939 64be c1df 83be 34ca 08be e12f cc3d

sequential/dense_1/BiasAdd/ReadVariableOp f4 [2]
-0.15446183 0.15445943
00000000: 3e2b 1ebe 9d2a 1e3e

sequential/dense/MatMul f4 [16, 240]
0.3377378 0.3524494 0.5914059 0.24269427 0.2583766 0.52968884 0.47197017 0.06329086
0.3041882 0.03844496 0.6311322 -0.046385527 0.37696743 0.018325213 0.1496204 -0.25467852
0.2709205 0.07911361 0.5525093 0.3127581 0.34212598 0.06616823 0.44209117 0.40777448
0.2134302 0.19906619 0.056601766 0.40852827 0.36611974 0.32829583 0.3006043 0.5363005
0.30593583 0.23020267 0.006835204 0.100250445 0.26121598 0.09481213 0.29243386 0.40681764
-0.017559264 0.07071643 0.33745605 0.08783781 -0.3394047 0.13044944 0.2523322 -0.19052395
-0.23007569 0.17042027 0.28710842 -0.24580964 -0.10834008 0.07273853 0.28870314 -0.34187275
-0.22872654 0.043653112 0.4513838 0.22720784 -0.25375113 0.16843782 0.45893708 0.22828275
0.16089392 -0.0010248015 0.20407134 0.22545393 -0.09102421 0.11085589 0.34919685 -0.16394147
-0.7562282 -0.18965791 0.2271957 0.026990382 -0.3164007 0.021190258 0.025436671 0.5510622
0.10759297 -0.35614917 0.06641994 0.044970706 -0.4598684 -0.04583834 0.17946412 -0.10229919
-0.5089062 -0.112118945 0.16553326 -0.03232344 -0.21610466 -0.13798359 0.11043782 -0.055250946
-0.46389398 -0.014213082 0.30746788 0.07014546 -0.43920138 0.08473096 0.14422405 -0.031543095
-0.055036925 0.17045856 0.11681853 0.13028815 -0.26897895 -0.45447358 0.18872488 -0.08212578
-0.22125168 -0.159315 0.0036838762 0.36457232 -0.50345385 -0.23906249 -0.19733964 0.5800474
-0.21104753 0.5428212 0.25298992 0.17680195 -0.21554793 0.12861963 0.30102798 0.051886193
-0.46251193 -0.01920922 -0.040137973 -0.17914766 -0.3794056 -0.13223691 -0.047680534 0.014084643
-0.22536437 0.013548383 -0.10728753 -0.1777673 -0.41314667 -0.0015912509 -0.22741929 -0.107240535
-0.4020883 0.1431229 0.107981354 0.032245215 -0.29506925 -0.23241213 0.14815074 0.17932141
0.0021102906 0.08285487 -0.008140124 -0.12918861 -0.11425355 -0.0117581105 -0.2637766 -0.048793398
-0.35269323 0.72826254 0.39401516 0.14818005 -0.07239931 0.14515293 0.42997462 0.13497607
-0.13629851 -0.034966774 0.2807201 0.030292181 0.065903135 -0.2014444 -0.11404636 0.06180978
-0.17602025 -0.15896212 -0.20737639 -0.06147364 -0.32031184 0.059730474 -0.2503608 -0.14595497
-0.30747575 -0.22521968 -0.21228036 0.023454485 -0.31429505 0.10861858 0.044081196 0.029452423
-0.36333245 0.2804444 -0.19547541 0.08555427 -0.07731266 0.15734494 0.075434886 0.33151183
-1.0136507 0.44871262 0.35464084 0.02250655 -0.47124195 -0.26978567 0.305675 0.3027585
-0.54551065 0.0052417065 0.18198036 0.22850367 0.20087355 -0.06516005 -0.10433857 0.1561134
0.067228526 -0.123330265 -0.4122676 0.10511315 -0.0042632003 -0.09187825 -0.7100423 -0.08676793
-0.5246743 -0.075700045 -0.46102014 -0.015178921 -0.6285785 -0.8020876 -0.35052833 0.13812609
-0.78531486 -0.09121025 -0.19512202 0.22895837 -0.5255311 0.09604085 -0.102140635 0.3160549
0.11134597 0.1156912 0.45378834 -0.078415304 -0.093170665 0.5489448 0.34509656 -0.026856733
-0.0024986512 0.27569154 0.040024 0.45476094 -0.041051917 0.2171473 -0.17342517 0.1483864
00000000: f8eb ac3e 3f74 b43e 6166 173f d984 783e
00000010: f049 843e b099 073f 13a6 f13e a39e 813d
00000020: 8ebe 9b3e 7678 1d3d e191 213f c0fe 3dbd
00000030: e001 c13e c21e 963c 1736 193e 3965 82be
00000040: 17b6 8a3e 5106 a23d 4071 0d3f d421 a03e
00000050: 232b af3e 3583 873d c659 e23e d1c7 d03e
00000060: 728d 5a3e 02d8 4b3e 41d7 673d 9e2a d13e
00000070: 0c74 bb3e 6416 a83e cfe8 993e fd4a 093f
00000080: 9fa3 9c3e 40ba 6b3e d9f9 df3b 1b50 cd3d
00000090: 1abe 853e dd2c c23d e4b9 953e 674a d03e
000000a0: 72d8 8fbc c7d3 903d 0ac7 ac3e 4fe4 b33d
000000b0: 74c6 adbe 8a94 053e b031 813e b618 43be
000000c0: f698 6bbe a782 2e3e e0ff 923e 86b5 7bbe
000000d0: 67e1 ddbd f0f7 943d e6d0 933e f209 afbe
000000e0: 4a37 6abe 9bcd 323d c71b e73e 2ca9 683e
000000f0: abeb 81be f77a 2c3e cdf9 ea3e f4c2 693e
00000100: 60c1 243e a252 86ba 14f8 503e 65dd 663e
00000110: e76a babd 6a08 e33d eec9 b23e 46e0 27be
00000120: 2c98 41bf af35 42be fda5 683e ef1a dd3c
00000130: 46ff a1be 3197 ad3c 9160 d03c 6a12 0d3f
00000140: b459 dc3d 2f59 b6be 2d07 883d 3433 383d
00000150: df73 ebbe fcc0 3bbd 71c5 373e 3d82 d1bd
00000160: ad47 02bf 9e9e e5bd 8d81 293e 9565 04bd
00000170: 8a4a 5dbe 924b 0dbe 392d e23d d14e 62bd
00000180: 8383 edbe fddd 68bc 6e6c 9d3e 6ca8 8f3d
00000190: 01df e0be 6d87 ad3d 78af 133e 5533 01bd
000001a0: 666e 61bd b08c 2e3e 8e3e ef3d 426a 053e
000001b0: 9cb7 89be c3b0 e8be 1841 413e 9031 a8bd
000001c0: cd8f 62be 7923 23be 306d 713b 39a9 ba3e
000001d0: 5ae2 00bf cccc 74be 6713 4abe fd7d 143f
000001e0: d81c 58be 55f6 0a3f e587 813e 920b 353e
000001f0: 99b8 5cbe ddb4 033e 5720 9a3e 9e86 543d
00000200: 5dce ecbe a75c 9dbc b767 24bd 7c72 37be
00000210: 7341 c2be 1d69 07be aa4c 43bd 46c3 663c
00000220: ebc5 66be 09fa 5d3c 91b9 dbbd a208 36be
00000230: f687 d3be 8591 d0ba 9ae0 68be eda0 dbbd
00000240: 85de cdbe cf8e 123e 5425 dd3d 8f13 043d
00000250: 5113 97be 72fd 6dbe d4b4 173e 08a0 373e
00000260: cd4c 0a3b d0af a93d 285e 05bc 054a 04be
00000270: c4fd e9bd 17a5 40bc ba0d 87be 96db 47bd
00000280: 3594 b4be 6a6f 3a3f 5bbc c93e 83bc 173e
00000290: 1746 94bd f8a2 143e a225 dc3e 2b37 0a3e
000002a0: d691 0bbe 5239 0fbd 8cba 8f3e 4f27 f83c
000002b0: 39f8 863d 7147 4ebe 2391 e9bd 402c 7d3d
000002c0: a73e 34be f7c6 22be 7a5a 54be c9cb 7bbd
000002d0: eaff a3be f1a7 743d 4a2f 80be 3875 15be
000002e0: 766d 9dbe fd9f 66be 0660 59be 9f23 c03c
000002f0: 48eb a0be 6b73 de3d 7c8e 343d 3546 f13c
00000300: b606 babe 6996 8f3e b52a 48be 1437 af3d
00000310: 1a56 9ebd 081f 213e 9b7d 9a3d ebbb a93e
00000320: 4ebf 81bf a9bd e53e 7c93 b53e a85f b83c
00000330: a046 f1be 5921 8abe 6f81 9c3e 2a03 9b3e
00000340: 96a6 0bbf 9fc2 ab3b 0f59 3a3e defc 693e
00000350: ccb1 4d3e a272 85bd 76af d5bd 31dc 1f3e
00000360: 1caf 893d 9494 fcbd bd14 d3be 9045 d73d
00000370: 51b2 8bbb aa2a bcbd 55c5 35bf 62b3 b1bd
00000380: 0e51 06bf a008 9bbd d50a ecbe 02b1 78bc
00000390: 85ea 20bf 9d55 4dbf 7378 b3be ed70 0d3e
000003a0: 650a 49bf 71cc babd 11ce 47be 1074 6a3e
000003b0: 3589 06bf 11b1 c43d 1c2f d1bd f3d1 a13e
000003c0: 5b09 e43d 82ef ec3d f256 e83e 3498 a0bd
000003d0: 43d0 bebd a587 0c3f 7fb0 b03e a702 dcbc
000003e0: 69c0 23bb 7127 8d3e 35f0 233d 6dd6 e83e
000003f0: 0e26 28bd dd5b 5e3e 5e96 31be 9bf2 173e

sequential/dense_1/MatMul f4 [2, 16]
-0.5320256 -1.3444035 0.53641874 -0.9881375 -1.0328711 1.1226383 -0.39790386 -0.57510066
0.513712 0.78183705 -0.7070892 -0.6369601 0.78153235 0.4333749 1.4809121 1.2211328
0.043951046 1.6167691 -0.59661305 0.55564356 1.1878296 -0.087970145 1.1391261 0.93337643
0.09617222 0.1937076 0.33219317 0.9515851 -1.1442496 0.01930778 -1.0114474 -1.1168307
00000000: d432 08bf 6a15 acbf bd52 093f 94f6 7cbf
00000010: 1f35 84bf 9db2 8f3f 0eba cbbe cc39 13bf
00000020: a182 033f 7926 483f cc03 35bf d10f 23bf
00000030: 8112 483f 51e3 dd3e 878e bd3f 144e 9c3f
00000040: 0306 343d 4af2 ce3f a2bb 18bf a83e 0e3f
00000050: cd0a 983f b129 b4bd e2ce 913f c2f1 6e3f
00000060: f1f5 c43d 495b 463e 3915 aa3e 159b 733f
00000070: c576 92bf 592b 9e3c 1c77 81bf 4ff4 8ebf
