runtime_data/silver.tflite (tflite, 25552 bytes, 12 tensors)

sequential/conv2d/BiasAdd/ReadVariableOp f4 [16]
0.0378851 0.94817287 0.79547346 -0.0047062645 0.032985564 -0.0066674575 0.043252632 0.12639357
0.8623169 0.76212764 -0.056383424 -0.32717627 0.5736197 0.59773046 0.14495997 -0.079044946
00000000: 682d 1b3d 75bb 723f 26a4 4b3f 0237 9abb
00000010: df1b 073d b07a dabb ac29 313d 516d 013e
00000020: cdc0 5c3f cc1a 433f 4ef2 66bd a683 a7be
00000030: bed8 123f dd04 193f 6370 143e 51e2 a1bd

sequential/conv2d_1/BiasAdd/ReadVariableOp f4 [8]
-0.21757244 0.00852481 -0.011444747 -0.0013532848 -0.3182806 -0.6373362 -0.15195227 -0.41544667
00000000: 4fcb 5ebe a5ab 0b3c c082 3bbc b460 b1ba
00000010: adf5 a2be 7728 23bf 6099 1bbe 6db5 d4be

sequential/conv2d/Conv2D f4 [16, 3, 3, 1]
-0.3429175 -0.19211133 -0.31846943 0.00048838224 -0.10949275 0.06924893 0.1768394 0.21093497
0.16982214 0.20936443 0.07853177 0.37524974 -0.20226438 -0.25457984 -0.02960682 -0.017796174
-0.22050552 0.035173666 0.3178273 0.0516481 0.018730272 0.045827165 -0.22878432 -0.28293777
-0.08974947 -0.38650975 -0.037866693 -0.17357592 -0.19658957 -0.17797375 -0.19363344 -0.0814521
-0.014443603 -0.18708603 -0.16280212 -0.12588687 0.41818655 0.14742881 -0.24012217 -0.18170592
-0.10264492 0.21788347 -0.121290065 -0.14833988 0.18241909 -0.109135725 -0.0037317628 -0.15641195
-0.04588235 -0.06429136 -0.025565367 -0.088689476 -0.036098994 -0.1798879 -0.08165678 0.17330942
-0.2989323 0.078249924 0.5826286 0.027890528 -0.019045452 -0.0680595 -0.009527053 0.20567943
0.1479258 -0.13367693 -0.40364882 -0.10546424 0.18977591 -0.24341239 -0.38900587 0.11557243
0.15452799 -0.05693365 -0.0694293 0.266388 -0.41777137 -0.1778383 0.18742439 -0.11492424
0.029389007 -0.08296498 0.015692977 0.06972013 -0.2892863 -0.2745084 0.1805415 0.00614921
-0.012875112 0.4291287 -0.111521244 0.031056272 -0.06771727 0.2650326 -0.287346 -0.11547178
0.63633794 0.25103557 0.21794233 -0.15947604 0.3192013 -0.110375494 -0.013734188 -0.17017269
-0.08578139 -0.0448662 -0.18807848 2.522989e-05 0.4237011 0.2379348 -0.01687934 0.08046981
-0.1970198 -0.1592909 0.01904594 -0.24181633 -0.0862521 -0.4294572 -0.186442 -0.2765077
-0.38011256 -0.13028793 0.14226711 -0.043657053 0.15066105 0.12400937 -0.23002863 -0.20422971
-0.41718096 -0.1916829 0.07761964 0.17868751 -0.18019156 -0.25119376 0.13921465 -0.12677947
-0.2492565 0.17485596 0.20759858 0.029542603 0.7562566 -0.13347495 -0.16837041 0.08556532
00000000: e292 afbe d5b8 44be 6d0e a3be c706 003a
00000010: bc3d e0bd 62d2 8d3d 6315 353e 56ff 573e
00000020: dbe5 2d3e a163 563e 44d5 a03d bc20 c03e
00000030: 651e 4fbe 4a58 82be 008a f2bc 48c9 91bc
00000040: 33cc 61be 4312 103d 43ba a23e f58c 533d
00000050: 3a70 993c 44b5 3b3d 7046 6abe 38dd 90be
00000060: 92ce b7bd 9be4 c5be 1b1a 1bbd e3bd 31be
00000070: c74e 49be c03e 36be d847 46be 5cd0 a6bd
00000080: dda4 6cbc 7b93 3fbe 99b5 26be 7de8 00be
00000090: 8c1c d63e 94f7 163e 96e2 75be 1e11 3abe
000000a0: 8037 d2bd d81c 5f3e ed66 f8bd 69e6 17be
000000b0: 12cc 3a3e 8d82 dfbd 9790 74bb 742a 20be
000000c0: 22ef 3bbd 30ab 83bd 766e d1bc d4a2 b5bd
000000d0: 8adc 13bd 8934 38be ab3b a7bd 0678 313e
000000e0: a80d 99be 7f41 a03d 2627 153f ad7a e43c
000000f0: 3505 9cbc c762 8bbd 5b17 1cbc a19d 523e
00000100: dc79 173e 9be2 08be 0fab cebe a3fd d7bd
00000110: 9e54 423e 1941 79be c72b c7be 3db1 ec3d
00000120: 963c 1e3e 4233 69bd f330 8ebd 0264 883e
00000130: 21e6 d5be 3e1b 36be 2eec 3f3e 665d ebbd
00000140: 37c1 f03c 8be9 a9bd 8f8e 803c 6dc9 8e3d
00000150: 551d 94be 5d8c 8cbe dfdf 383e 507f c93b
00000160: 22f2 52bc c2b6 db3e 4065 e4bd b969 fe3c
00000170: 5aaf 8abd 5ab2 873e 041f 93be 787c ecbd
00000180: 0be7 223f bc87 803e 462c 5f3e b04d 23be
00000190: 5a6e a33e 8c0c e2bd 5c05 61bc c041 2ebe
000001a0: 27ae afbd 9fc5 37bd a597 40be c7a4 d337
000001b0: 5aef d83e 2ea5 733e 8b46 8abc 5bcd a43d
000001c0: 8fbf 49be 271d 23be 3b06 9c3c b39e 77be
000001d0: f1a4 b0bd d0e1 dbbe a7ea 3ebe 6b92 8dbe
000001e0: 1d9e c2be 336a 05be 78ae 113e bdd1 32bd
000001f0: e446 1a3e a0f8 fd3d a08c 6bbe 9821 51be
00000200: be98 d5be 8648 44be 0cf7 9e3d dcf9 363e
00000210: 2384 38be 789c 80be 498e 0e3e 7ad2 01be
00000220: 193d 7fbe 710d 333e b994 543e 5403 f23c
00000230: 089a 413f a8ad 08be 4b69 2cbe df3c af3d

sequential/conv2d_1/Conv2D f4 [8, 3, 3, 16]
0.18452647 -0.5244061 0.26203272 0.2653756 -0.1276976 0.26936212 0.026543358 0.19603199
-0.346437 -0.045913924 0.31959167 0.14654629 -0.4531082 0.3131508 0.036478702 -0.06854397
0.21995854 -0.13957177 0.41358086 0.49668524 -0.0067174546 0.103341885 0.077754565 0.31329757
0.0019557572 0.28977898 0.28431243 0.060599547 -0.035272628 0.21286501 0.023603981 0.24083692
-0.14612386 -0.09962079 0.029554013 0.4075068 0.016033716 0.15043482 0.0757994 0.47509843
-0.13932893 -0.03602477 0.22803032 0.3408358 -0.38369703 -0.104293846 0.020350005 0.017588954
0.084546626 0.16007665 0.16814812 0.108887285 0.09562289 0.11308787 -0.033660263 0.2800498
0.38541752 0.13473453 0.3669793 0.10656923 0.14663889 -0.08105982 -0.27796364 0.42687085
0.06266505 -0.16701373 -0.40055755 0.27825528 0.10384233 0.36728513 0.011536166 0.054854475
-0.11791708 -0.10668621 0.15362817 -0.27699772 0.19527741 0.052091714 -0.2997718 0.36926937
-0.08808429 0.12519753 0.09436603 0.27384245 -0.01823403 0.13944927 -0.015205696 -0.04831626
0.12292105 -0.026655477 0.13757807 -0.025933878 -0.09976812 0.14521201 -0.34931043 0.13295041
0.1383223 0.11185853 0.055942487 0.351201 -0.15922111 0.15631855 0.07618537 0.15559773
0.47093317 0.17677304 0.471235 -0.06321866 0.06818174 0.44449458 -0.055939294 0.08256774
0.21149698 -0.0025487693 0.14135493 0.33495787 -0.027802851 0.1353985 0.021781184 0.1293735
0.16696373 -0.14039803 0.20573235 0.023692405 0.062433615 -0.13355047 0.018619085 0.16511174
0.18880315 -0.08192721 0.28190067 0.49961078 0.021636032 0.41813895 0.025786925 -0.15242182
0.2704645 -0.061714385 0.26876184 0.07256999 -0.13226907 -0.330205 -0.09586935 -0.04225354
-0.16086894 0.10453619 -0.115341425 -0.307207 0.23402143 -0.17934187 0.03890239 -0.6541423
0.10001798 -0.5101015 -0.019192794 0.107769035 0.5901621 0.14086536 -0.21353687 -0.17911951
-0.4768782 -0.3982463 -0.09841358 -0.12356736 -0.21012713 -0.1723749 -0.26440474 -0.36537412
0.0014189028 -0.3340191 -0.164018 -0.23461238 0.01397721 -0.18692486 0.18221357 -0.19533679
-0.20394182 -0.13506469 -0.16283919 -0.06980783 -0.22684988 -0.078233786 -0.0721505 0.33130515
-0.43600276 0.05921676 -0.12103847 -0.018299216 -0.7111334 0.048119806 0.23014185 0.077346295
0.14550832 -0.14171754 -0.10701846 0.12103071 0.20248681 -0.03908852 -0.019416282 0.25181544
-0.5478444 -0.27762702 0.0093223555 -0.03616154 -0.6774058 0.20041685 0.13450636 0.059803225
-0.1085668 -0.17423807 -0.09774435 0.13182929 0.090683974 -0.08509343 0.21374221 0.19255207
-0.059578978 -0.64921194 0.18205085 -0.09781091 -0.22681837 0.048958115 -0.10923147 -0.0006941171
0.15484048 -0.21787491 -0.10418237 -0.0409618 0.087515466 0.19476755 0.12570553 0.26703322
0.252744 -0.76720506 0.19875716 -0.13151921 0.11693623 -0.5254793 -0.2429174 0.010553734
0.24218728 -0.024019763 -0.1943475 -0.08887182 -0.011865493 -0.010931379 0.22283624 0.11632295
0.025674574 0.01959973 0.45067284 0.09462845 -0.030614724 0.0021476748 -0.14639644 -0.20115069
00000000: 82f4 3c3e 7a3f 06bf 2729 863e 50df 873e
00000010: 29c3 02be d5e9 893e 7571 d93c 9cbc 483e
00000020: 3160 b1be 3d10 3cbd 85a1 a33e 3b10 163e
00000030: ccfd e7be 4d55 a03e b16a 153d c860 8cbd
00000040: d03c 613e e7eb 0ebe dfc0 d33e 874d fe3e
00000050: 181e dcbb e9a4 d33d c93d 9f3d 8a68 a03e
00000060: 292c 003b e95d 943e 6691 913e 3b37 783d
00000070: 087a 10bd 49f9 593e 235d c13c f49d 763e
00000080: 7ea1 15be fc05 ccbd 421b f23c bba4 d03e
00000090: 2459 833c 960b 1a3e b73c 9b3d 1a40 f33e
000000a0: 3eac 0ebe b68e 13bd c880 693e 0882 ae3e
000000b0: f073 c4be 0398 d5bd 0eb5 a63c b616 903c
000000c0: c826 ad3d 22eb 233e 052f 2c3e 4c00 df3d
000000d0: efd5 c33d 9d9a e73d 58df 09bd b062 8f3e
000000e0: 7255 c53e d9f7 093e b6e4 bb3e f840 da3d
000000f0: 8128 163e b102 a6bd 4051 8ebe d18e da3e
00000100: 8956 803d a605 2bbe e115 cdbe 7a77 8e3e
00000110: 4aab d43d cc0c bc3e 3002 3d3c 16af 603d
00000120: 837e f1bd 4d7e dabd b450 1d3e a5d2 8dbe
00000130: cdf6 473e 1f5e 553d b07b 99be e010 bd3e
00000140: 8965 b4bd c833 003e fa42 c13d 1435 8c3e
00000150: 885f 95bc cacb 0e3e 5021 79bc 45e7 45bd
00000160: 08be fb3d 965c dabc 44e1 0c3e 4973 d4bc
00000170: 3a53 ccbd 75b2 143e d1d8 b2be 2724 083e
00000180: 5ca4 0d3e 1616 e53d f323 653d 9ed0 b33e
00000190: dc0a 23be f811 203e 1307 9c3d 0355 1f3e
000001a0: 271e f13e fe03 353e b745 f13e c978 81bd
000001b0: dea2 8b3d cb94 e33e 9a20 65bd 4619 a93d
000001c0: aa92 583e 4109 27bb 59bf 103e 997f ab3e
000001d0: cec2 e3bc e8a5 0a3e 746e b23c 7d7a 043e
000001e0: 8af8 2a3e 80c4 0fbe 80ab 523e 9316 c23c
000001f0: 64ba 7f3d 74c1 08be 0d87 983c 0d13 293e
00000200: 9d55 413e 74c9 a7bd 4955 903e fccc ff3e
00000210: 0c3e b13c 4f16 d63e 1a3f d33c 7714 1cbe
00000220: 537a 8a3e 39c8 7cbd 279b 893e 939f 943d
00000230: 8b71 07be a110 a9be 2657 c4bd 0c12 2dbd
00000240: d4ba 24be 1217 d63d 2038 ecbd 3c4a 9dbe
00000250: 50a3 6f3e 65a5 37be 1d58 1f3d df75 27bf
00000260: 3ad6 cc3d 0396 02bf 353a 9dbc 03b6 dc3d
00000270: dd14 173f 023f 103e 69a9 5abe 1b6b 37be
00000280: 6129 f4be f0e6 cbbe 0f8d c9bd e210 fdbd
00000290: 912b 57be 0c83 30be 0f60 87be 5112 bbbe
000002a0: 7afa b93a 8d04 abbe 56f4 27be 3a3e 70be
000002b0: ab00 653c 3b69 3fbe 3296 3a3e 5e06 48be
000002c0: 20d6 50be 664e 0abe 51bf 26be 68f7 8ebd
000002d0: 564b 68be 0939 a0bd a4c3 93bd d4a0 a93e
000002e0: c13b dfbe 468d 723d 04e3 f7bd 3de8 95bc
000002f0: d70c 36bf 4619 453d 4eaa 6b3e bc67 9e3d
00000300: 2200 153e 671e 11be 7f2c dbbd f3de f73d
00000310: b458 4f3e 491b 20bd e50e 9fbc f4ed 803e
00000320: 883f 0cbf 2125 8ebe cbbc 183c 1f1e 14bd
00000330: 776a 2dbf 133a 4d3e 09bc 093e 3af4 743d
00000340: 4558 debd 776b 32be 312e c8bd 42fe 063e
00000350: 85b8 b93d 7745 aebd 3ddf 5a3e 5f2c 453e
00000360: 1609 74bd c132 26bf 8a6b 3a3e 1651 c8bd
00000370: 1343 68be 4e88 483d c0b4 dfbd 69f5 35ba
00000380: 818e 1e3e 9a1a 5fbe 915d d5bd 8fc7 27bd
00000390: 4f3b b33d 2571 473e f3b8 003e 94b8 883e
000003a0: a967 813e 8d67 44bf ff86 4b3e f9ac 06be
000003b0: 437c ef3d d085 06bf 57bf 78be 92e9 2c3c
000003c0: f1ff 773e 18c5 c4bc 0803 47be 6e02 b6bd
000003d0: 7c67 42bc 8719 33bc 2f2f 643e ba3a ee3d
000003e0: 7c53 d23c 9d8f a03c 97be e63e 90cc c13d
000003f0: bbcb fabc 01c0 0c3b f3e8 15be 72fa 4dbe

sequential/dense/BiasAdd/ReadVariableOp f4 [8]
0.14026345 0.020224534 0.10083885 0.037614126 -0.26881588 -0.12589195 -0.36018822 -0.3588532
00000000: 39a1 0f3e ecad a53c 9984 ce3d 4511 1a3d
00000010: 3ca2 89be d2e9 00be 976a b8be 9bbb b7be

sequential/dense_1/BiasAdd/ReadVariableOp f4 [2]
0.0059650913 -0.0059658433
00000000: d076 c33b 1f7d c3bb

sequential/batch_normalization/FusedBatchNormV3 f4 [16]
0.13252622 0.13006051 0.6201385 32.484768 0.12435549 29.52188 0.05202543 0.5382342
0.41209322 0.12598792 0.026368527 7.105617 0.112248324 1.5305561 2.3924978 0.030384403
00000000: f4b4 073e 952e 053e 66c1 1e3f 67f0 0142
00000010: 17ae fe3d cf2c ec41 9e18 553d b7c9 093f
00000020: e2fd d23e fa02 013e cf02 d83c 3761 e340
00000030: 73e2 e53d 43e9 c33f af1e 1940 b6e8 f83c

sequential/batch_normalization/FusedBatchNormV31 f4 [16]
-0.008390635 -0.9573497 0.05967596 -0.4750301 -2.7506208 -0.301476 -2.8585258 0.034711577
0.02344302 -1.0463896 -2.6134818 -0.006058144 -1.160296 0.104925685 0.057675816 -2.5873218
00000000: e078 09bc df14 75bf c86e 743d 2537 f3be
00000010: 2c0a 30c0 105b 9abe 16f2 36c0 ba2d 0e3d
00000020: 940b c03c 18f0 85bf 4943 27c0 6583 c6bb
00000030: 9484 94bf 47e3 d63d 7a3d 6c3d ae96 25c0

sequential/batch_normalization_1/FusedBatchNormV3 f4 [8]
0.33701855 0.6430242 0.55145335 0.55509204 0.38825956 0.4799356 1.2553867 0.6525733
00000000: b28d ac3e 3c9d 243f 0c2c 0d3f 831a 0e3f
00000010: f5c9 c63e 1eba f53e 83b0 a03f 0b0f 273f

sequential/batch_normalization_1/FusedBatchNormV31 f4 [8]
-0.55578786 -0.74479383 -0.66830564 -0.77253854 -0.417332 -0.5127196 -0.44738048 -0.6224631
00000000: 1d48 0ebf cfaa 3ebf 1416 2bbf 16c5 45bf
00000010: 8aac d5be 9741 03bf 0e0f e5be be59 1fbf

sequential/dense/MatMul f4 [8, 480]
-0.062471576 -0.03198556 -0.015971603 -0.012176717 -0.054160018 -0.07688115 -0.18844979 -0.15668708
-0.14603266 -0.5340476 -0.3450831 0.10710833 -0.1560359 -0.12686914 -0.23795976 0.18244945
0.03182137 -0.61932766 -0.29794326 0.1917566 -0.33954498 0.12714939 -0.2581477 0.19183822
-0.007621197 -0.5897289 -0.3171389 0.3408882 -0.5192697 -0.019459851 -0.24886172 0.12993321
0.12907559 -0.625744 -0.30345362 0.1582978 -0.24887864 0.10795102 -0.3100373 0.4031731
0.29212865 -0.47199202 -0.32386425 0.26214722 -0.26167953 0.1902451 -0.20339774 0.3413837
0.25747442 -0.4286165 -0.28230208 0.3730171 -0.32857177 0.07146854 -0.0627485 0.28215697
0.07550821 -0.38683373 -0.553442 0.2718746 -0.38320467 0.018548774 -0.05292893 -0.11680521
0.03306733 -0.19295058 -0.4361544 0.06903366 -0.23078209 -0.16819933 -0.18353623 -0.15686339
-0.012259851 -0.3479898 -0.25111237 0.23186041 -0.37057462 -0.02551719 -0.44538167 -0.006928924
-0.10275316 -0.20377477 -0.1629197 -0.1401248 -0.14406161 0.37135395 0.11703117 0.15668559
0.23880617 -0.16381401 -0.073600456 -0.12410922 -0.03526332 0.3218015 0.62889063 0.49988186
0.099916086 0.22503854 0.12648156 -0.04661308 -0.1276731 0.18236533 0.3283283 0.25382063
-0.0061984137 -0.11357376 -0.032033008 0.16389607 -0.32718006 0.3115845 0.23356625 0.31054828
-0.094194494 -0.101543546 0.14544614 0.25578156 0.14702694 0.033380173 0.34904152 0.13019794
-0.112286605 -0.14351727 0.35856098 0.18746759 -0.06303956 0.17757595 0.284943 0.44595513
0.0039340043 0.12992962 0.17263761 0.114465125 -0.30572084 0.27626958 0.3057318 0.5915432
0.027730204 -0.02066896 0.03427846 0.16819234 -0.2090955 0.33196855 0.16048934 0.4899899
-0.049693674 0.33604684 -0.13010167 -0.0893856 -0.15643507 0.25670862 0.75344825 0.5312123
-0.025755504 0.33512804 -0.013983568 0.041865468 -0.2868519 0.071379036 0.55112076 0.20964614
-0.039989308 -0.02759203 -0.2676631 -0.09156963 -0.32436663 -0.09827972 0.08878498 0.013487139
0.02492078 -0.24555741 0.10789172 -0.014651841 -0.17970644 0.06639587 0.42753422 0.23279867
0.32336146 0.08819362 0.13849914 0.106926754 0.060599834 -0.20213081 0.18769726 -0.29809287
0.077292114 -0.016479746 0.031051375 0.31324592 0.058952946 -0.21796352 -0.14527935 0.2904799
-0.20805268 -0.07430237 0.09668624 -0.18833835 -0.25953814 -0.032086633 -0.06775565 0.028461196
-0.045137268 0.02889673 0.12357188 0.079586394 -0.0010075311 0.117599905 -0.0009864803 0.15160467
-0.07964173 -0.14773549 0.15085185 0.11452552 0.11692521 0.033475455 0.045185134 -0.19551297
0.077561505 -0.024451409 0.26120678 0.11130255 -0.06716477 -0.011508732 0.18067743 0.05236893
-0.23863536 -0.06310201 -0.0019139921 -0.03307537 -0.090547785 0.08432224 0.36505345 0.06461627
-0.35555643 0.047099132 -0.0336686 -0.1429849 -0.21021914 0.13894674 0.03916248 0.32626352
0.007890207 -0.17012128 -0.010474823 -0.11547431 0.061332516 -0.20032129 0.012750975 -0.13790621
-0.16373166 -0.22778112 0.22479367 -0.30404797 0.11465125 -0.21245565 0.29037535 -0.25881374
00000000: 32e2 7fbd 4a03 03bd e1d6 82bc da80 47bc
00000010: e5d6 5dbd dd73 9dbd fbf8 40be 9472 20be
00000020: 9689 15be 58b7 08bf bbae b0be 9d5b db3d
00000030: e0c7 1fbe fce9 01be b9ab 73be 07d4 3a3e
00000040: 2057 023d 428c 1ebf 058c 98be d85b 443e
00000050: d7d8 adbe 7333 023e ef2b 84be 3d71 443e
00000060: 3cbb f9bb 79f8 16bf 0860 a2be e688 ae3e
00000070: dcee 04bf 446a 9fbc 9bd5 7ebe 360d 053e
00000080: 642c 043e c230 20bf 465e 9bbe d218 223e
00000090: 0bda 7ebe 6d15 dd3d 36bd 9ebe b46c ce3e
000000a0: e391 953e f0a8 f1be 89d1 a5be 2938 863e
000000b0: dcfa 85be 9dcf 423e 7f47 50be d8c9 ae3e
000000c0: b0d3 833e 9f73 dbbe e689 90be 19fc be3e
000000d0: 8f3a a8be 195e 923d 4982 80bd e176 903e
000000e0: 0ca4 9a3d 120f c6be 60ae 0dbf 2633 8b3e
000000f0: 6733 c4be 99f3 973c 01cc 58bd 9237 efbd
00000100: 9c71 073d d694 45be a14f dfbe 8561 8d3d
00000110: 2452 6cbe 723c 2cbe ecf0 3bbe cca0 20be
00000120: 8bdd 48bc b82b b2be cd91 80be d16c 6d3e
00000130: f5bb bdbe 6d09 d1bc 1109 e4be 070c e3bb
00000140: 4070 d2bd 55aa 50be 6cd4 26be e07c 0fbe
00000150: e384 13be 1b22 be3e 0aae ef3d 3072 203e
00000160: 9b89 743e dcbe 27be d6bb 96bd fa2c febd
00000170: 4570 10bd 2bc3 a43e fafe 203f 84f0 ff3e
00000180: cea0 cc3d 8170 663e 6284 013e 5bed 3ebd
00000190: bdbc 02be fabd 3a3e a61a a83e c7f4 813e
000001a0: 101c cbbb 5c99 e8bd 0b35 03bd 5fd4 273e
000001b0: 2584 a7be 0188 9f3e fe2b 6f3e 2f00 9f3e
000001c0: 0be9 c0bd 10f6 cfbd d5ef 143e cdf5 823e
000001d0: 3b8e 163e a6b9 083d 92b5 b23e 9c52 053e
000001e0: 85f6 e5bd 31f6 12be 4e95 b73e 81f7 3f3e
000001f0: e31a 81bd 78d6 353e 0de4 913e 3b54 e43e
00000200: d2e8 803b 450c 053e eac7 303e b16c ea3d
00000210: 7187 9cbe 3573 8d3e e188 9c3e 606f 173f
00000220: 742a e33c f351 a9bc 9267 0c3d 9d3a 2c3e
00000230: 211d 56be c8f7 a93e 5157 243e f5df fa3e
00000240: 988b 4bbd 550e ac3e 5f39 05be cc0f b7bd
00000250: 8430 20be 506f 833e fce1 403f 87fd 073f
00000260: 35fd d2bc e795 ab3e 561b 65bc 207b 2b3d
00000270: 41de 92be 2c2f 923d 4016 0d3f 7aad 563e
00000280: d4cb 23bd ae08 e2bc 230b 89be dc88 bbbd
00000290: 6213 a6be e146 c9bd e6d4 b53d 29f9 5c3c
000002a0: aa26 cc3c 6773 7bbe 56f6 dc3d 460e 70bc
000002b0: f704 38be 8ffa 873d c4e5 da3e c662 6e3e
000002c0: a28f a53e db9e b43d b8d2 0d3e 6afc da3d
000002d0: 8837 783d 61fb 4ebe b633 403e a19f 98be
000002e0: 544b 9e3d 8800 87bc 745f fe3c c561 a03e
000002f0: a578 713d d431 5fbe 1cc4 14be c8b9 943e
00000300: c30b 55be d72b 98bd 6f03 c63d c5db 40be
00000310: 2fe2 84be 466d 03bd 79c3 8abd 7427 e93c
00000320: dbe1 38bd d6b8 ec3c 4113 fd3d 31fe a23d
00000330: 220f 84ba 38d8 f03d c94c 81ba 413e 1b3e
00000340: 341b a3bd f947 17be e878 1a3e 5b8c ea3d
00000350: 7c76 ef3d 8f1d 093d 0c14 393d 8d34 48be
00000360: 91d8 9e3d 524e c8bc e5bc 853e 97f2 e33d
00000370: af8d 89bd 1f8f 3cbc 8103 393e ce80 563d
00000380: d45c 74be a03b 81bd ebde faba 0a7a 07bd
00000390: 1e71 b9bd 23b1 ac3d 49e8 ba3e 8955 843d
000003a0: 7e0b b6be 05eb 403d 16e8 09bd a26a 12be
000003b0: b043 57be 0e48 0e3e d668 203d 030c a73e
000003c0: ed45 013c 4634 2ebe 989e 2bbc cc7d ecbd
000003d0: ce37 7b3d 0621 4dbe 77e9 503c 4937 0dbe
000003e0: 46a9 27be 743f 69be 5030 663e 2dac 9bbe
000003f0: 46ce ea3d f98d 59be 14ac 943e 3c83 84be

sequential/dense_1/MatMul f4 [2, 8]
-0.456314 -0.7776908 -0.027251652 0.016192283 0.39861694 -0.0442258 -0.34886092 0.7513271
-0.9850653 -0.2511855 0.46480706 0.49854836 -0.39812267 -0.59330857 -1.0350033 -0.0117448
00000000: fda1 e9be bf16 47bf db3e dfbc aea5 843c
00000010: 8517 cc3e 1d26 35bd e69d b2be f956 403f
00000020: 3d2d 7cbf 639b 80be 31fb ed3e bb41 ff3e
00000030: bcd6 cbbe 12e3 17bf fd7a 84bf 436d 40bc
