runtime_data/silver.tflite (tflite, 25552 bytes, 12 tensors)

sequential/conv2d/BiasAdd/ReadVariableOp f4 [16]
0.07510453 -0.041139726 -0.01594457 -0.20598026 -0.094635695 -0.049867067 -0.4183365 0.36686906
-0.145579 0.0 -0.014264802 0.037028126 0.16082968 0.029040737 0.0869075 -0.007827953
00000000: 67d0 993d 2182 28bd 309e 82bc 7dec 52be
00000010: 5cd0 c1bd 6941 4cbd 3430 d6be 43d6 bb3e
00000020: a912 15be 0000 0000 ebb6 69bc ceaa 173d
00000030: 89b0 243e d7e6 ed3c 8ffc b13d d140 00bc

sequential/conv2d_1/BiasAdd/ReadVariableOp f4 [8]
-0.12964882 -0.048837483 -0.41628504 -0.09871936 0.0032980945 -0.051824998 0.018041806 -0.28464365
00000000: a9c2 04be d009 48bd 5023 d5be 602d cabd
00000010: d824 583b 7346 54bd 69cc 933c d0bc 91be

sequential/conv2d/Conv2D f4 [16, 3, 3, 1]
0.178259 0.0055872793 -0.24462517 0.09150793 0.037599985 -0.16755897 0.15428813 -0.12918381
-0.09132368 0.2374162 0.055271603 -0.090999044 0.086202316 -0.1876469 -0.3175109 0.019433435
-0.085779235 -0.24034084 -0.14037327 -0.059076585 0.13846433 -0.25562194 0.06632462 0.269327
-0.05680819 -0.0056553474 0.13376333 -0.047707967 0.63218033 -0.037935544 -0.07148412 0.11001744
-0.16056153 -0.0815817 0.041712888 -0.018131102 -0.11796123 -0.0671846 -0.06758301 -0.16171782
-0.08136912 0.118270956 -0.0022546023 -0.094282664 -0.260339 -0.17218244 -0.10150847 0.037476625
-0.22988069 0.08445329 -0.1261984 -0.056888655 -0.122999795 -0.2588537 -0.18294717 0.03529824
-0.12893239 0.106177844 -0.1615451 0.3207161 0.0151737565 -0.027782183 -0.16061594 -0.00039616466
-0.12957022 -0.07111406 0.020964308 -0.13302879 0.58415955 -0.09685209 0.029845182 -0.08371368
-0.15719122 -0.25832498 -0.26780066 -0.00551312 0.079309426 0.14520317 0.22576159 -0.07479584
0.14737493 -0.15432557 -0.17799206 0.07372548 0.010402456 -0.18802714 -0.096649475 -0.11468302
-0.04833992 -0.14418799 -0.17505457 0.070423275 -0.0889531 -0.0889118 -0.21964158 -0.06499681
0.03883472 -0.08748312 -0.18594259 -0.23632774 -0.12360231 0.06511197 -0.06068795 0.07853075
-0.19621931 -0.16331047 -0.010082087 -0.12601328 -0.05403354 0.1330986 -0.065061666 -0.07998909
0.13495135 -0.23459429 0.28021222 0.18158278 -0.092266575 -0.2121174 -0.18967704 -0.06546979
-0.21848214 -0.17447464 -0.06978788 0.12390878 -0.09085618 0.013680697 0.19960307 -0.19021747
-0.023731714 -0.053285293 -0.06633499 -0.21992396 0.29177475 0.2801978 -0.027398318 0.27513117
0.06345867 0.2639519 0.046270475 -0.30514303 -0.07770989 -0.14388439 -0.034707066 -0.1530279
00000000: 8789 363e 7f15 b73b 057f 7abe 8268 bb3d
00000010: 7102 1a3d 9494 2bbe b5fd 1d3e c348 04be
00000020: e907 bbbd 3b1d 733e 7a64 623d b55d babd
00000030: d78a b03d 8226 40be ca90 a2be de32 9f3c
00000040: 06ad afbd e91b 76be 03be 0fbe 4afa 71bd
00000050: 98c9 0d3e e1e0 82be 34d5 873d 3be5 893e
00000060: b4af 68bd 7e50 b9bb 41f9 083e 6e69 43bd
00000070: 92d6 213f 4d62 1bbd 4466 92bd d350 e13d
00000080: 3e6a 24be 4e14 a7bd 22db 2a3d ad87 94bc
00000090: a895 f1bd 1498 89bd f668 8abd 5b99 25be
000000a0: daa4 a6bd 0b38 f23d f3c1 13bb 4517 c1bd
000000b0: 274b 85be 9850 30be ace3 cfbd 1781 193d
000000c0: d865 6bbe d9f5 ac3d 273a 01be 1404 69bd
000000d0: 51e7 fbbd 7988 84be 8156 3bbe e394 103d
000000e0: da06 04be c573 d93d 146c 25be e734 a43e
000000f0: 599b 783c 7697 e3bc 8178 24be 52b4 cfb9
00000100: 0eae 04be 40a4 91bd 57bd ab3c b338 08be
00000110: 7b8b 153f 635a c6bd e27d f43c 1472 abbd
00000120: bcf6 20be 2c43 84be 2b1d 89be 67a7 b4bb
00000130: fb6c a23d 24b0 143e 0c2e 673e 902e 99bd
00000140: 74e9 163e 8607 1ebe 8d43 36be 62fd 963d
00000150: 106f 2a3c 308a 40be 29f0 c5bd eede eabd
00000160: 1400 46bd 04a6 13be 8141 33be 143a 903d
00000170: 0b2d b6bd 6417 b6bd b9e9 60be 0c1d 85bd
00000180: 2811 1f3d 5a2a b3bd bc67 3ebe e6ff 71be
00000190: 3523 fdbd 6d59 853d ee93 78bd bbd4 a03d
000001a0: b7ed 48be dc3a 27be 562f 25bc a009 01be
000001b0: 4652 5dbd 004b 083e 0d3f 85bd 52d1 a3bd
000001c0: b030 0a3e 7c39 70be fa77 8f3e d6f0 393e
000001d0: 42f6 bcbd 4e35 59be b33a 42be 0615 86bd
000001e0: c8b9 5fbe 7ba9 32be f3ec 8ebd e3c3 fd3d
000001f0: ce12 babd 0125 603c bf64 4c3e 5ec8 42be
00000200: 0369 c2bc ae41 5abd a4da 87bd bf33 61be
00000210: 8063 953e 1676 8f3e 7072 e0bc fedd 8c3e
00000220: 9ff6 813d b424 873e 1c86 3d3d b53b 9cbe
00000230: 5d26 9fbd 6e56 13be ff28 0ebd 59b3 1cbe

sequential/conv2d_1/Conv2D f4 [8, 3, 3, 16]
-0.2464845 -0.10521464 -0.030164106 0.15947384 -0.079352126 -0.05637376 0.04158134 -0.017039154
-0.46256742 -0.17282215 -0.20455088 -0.10899249 -0.119051546 -0.08459875 0.10748756 0.29638878
-0.06613331 0.08892808 0.14587939 0.07760327 0.1291156 0.056875717 0.025622351 0.024456741
-0.52627426 -0.24796882 0.11251531 0.08393676 0.17302468 0.25806764 0.13068148 0.06279834
-0.042511832 8.045406e-05 0.20518498 0.027384717 0.11381949 0.11730073 -0.057707857 -0.058369074
-0.35922176 -0.14191209 -0.10312998 -0.014983888 0.1435689 0.1931809 -0.022555633 -0.14271405
-0.1396193 -0.050882455 0.21641584 0.1153182 0.07254298 0.12337863 0.071109645 -0.07089448
-0.20214714 -0.3045452 -0.007792695 -0.036893167 0.068264894 0.15078063 0.33662862 0.20053343
-0.052671194 -0.04126965 0.037999585 0.18304831 -0.09818312 -0.047215216 0.34405234 0.26179406
-0.2382362 -0.0805617 -0.04189612 -0.03693056 -0.018048447 0.10338589 0.010086897 -0.038252454
-0.11874632 -0.09852877 0.12287439 -0.16069828 0.088351786 -0.08056178 0.091477744 0.13851745
-0.004893029 -0.21744283 -0.0005649114 -0.13599712 0.08806553 -0.0178459 0.12710308 -0.1442148
0.05189212 0.22290964 0.026849298 0.12953354 -0.045748845 0.1735851 0.17476504 0.023285035
-0.091108255 -0.17443079 0.1319532 -0.27921137 0.13836604 0.0490546 0.414367 0.15105018
0.14728811 0.09444169 0.2884315 0.09698538 0.08542368 0.08693682 0.14503397 0.08445499
-0.25089365 0.013669794 0.1258711 -0.0064881514 0.23943901 -0.051909305 0.32747087 -0.104068466
0.06826356 -0.059712056 0.14355643 -0.05286081 -0.06729068 0.02353647 0.18670434 0.035246704
0.03047489 -0.0880473 -0.030867534 0.10145266 0.040289655 0.13720115 0.21093605 0.22003211
-0.10675294 -0.4348437 0.055228915 -0.11477072 -0.053475242 0.12095804 -0.25113466 -0.08457288
-0.12560867 -0.090358175 -0.071663775 0.04442549 -0.032676715 0.114029765 0.06612088 0.032296345
-0.26024687 -0.23494364 0.05540037 -0.11484987 -0.13783647 -0.004797203 -0.021946816 -0.110457875
-0.3253675 0.044611506 -0.06580675 0.024096599 -0.06384251 -0.11311357 0.121242784 -0.09013488
-0.10769487 -0.11997311 -0.2580543 -0.35273057 -0.058188867 0.08503072 -0.011368633 -0.24116702
-0.15187673 -0.12835333 -0.012911735 0.009855518 -0.17593612 0.026470447 -0.027518556 -0.021382123
-0.3067264 -0.16117156 -0.21968767 -0.2833778 -0.026998898 -0.050341297 -0.09012679 -0.00048500008
-0.12609087 -0.019370561 -0.17183055 0.0086679915 -0.073521584 0.0829191 -0.25355145 0.070679404
-0.30795318 -0.005175991 -0.3755819 -0.014853283 -0.031553384 0.060679536 0.03475175 -0.16667631
0.006511095 -0.008683448 -0.00788142 -0.09962713 -0.18075134 0.012874223 -0.23815821 -0.10763216
0.11751698 0.06841182 -0.20266134 -0.06843633 -0.115940645 0.15709156 -0.1710858 -0.18633273
0.0016853401 -0.18052946 0.059916876 -0.0062711113 -0.3118293 -0.09802266 -0.33734205 0.020004818
-0.18113935 0.056607217 0.09411548 -0.04194914 -0.049144406 0.085380085 -0.12319785 -0.18171905
-0.16927679 -0.07671839 -0.07953311 -0.24265893 0.065373324 0.036456376 0.19962938 -0.044900287
00000000: 6f66 7cbe c67a d7bd b71a f7bc 1c4d 233e
00000010: 5e83 a2bd 2ce8 66bd 3251 2a3d b295 8bbc
00000020: a3d5 ecbe 4af8 30be c975 51be 7437 dfbd
00000030: 4cd1 f3bd 1c42 adbd 7022 dc3d 45c0 973e
00000040: e770 87bd ed1f b63d 6861 153e 77ee 9e3d
00000050: e136 043e 83f6 683d f7e5 d13c 8159 c83c
00000060: e9b9 06bf 8aeb 7dbe 6d6e e63d 09e7 ab3d
00000070: 622d 313e 7121 843e 5ed1 053e 6b9c 803d
00000080: e320 2ebd 72b9 a838 031c 523e ea55 e03c
00000090: 311a e93d 5d3b f03d 135f 6cbd 6914 6fbd
000000a0: eaeb b7be 6751 11be d035 d3bd fb7e 75bc
000000b0: ba03 133e 37d1 453e 97c6 b8bc a223 12be
000000c0: 5df8 0ebe 1f6a 50bd 1d9c 5d3e f32b ec3d
000000d0: 6a91 943d efad fc3d efa1 913d 2031 91bd
000000e0: a9ff 4ebe 59ed 9bbe dd59 ffbb 4a1d 17bd
000000f0: 77ce 8b3d 3d66 1a3e 965a ac3e a358 4d3e
00000100: c0bd 57bd 5d0a 29bd 74a5 1b3d 0471 3b3e
00000110: 3b14 c9bd be64 41bd a127 b03e df09 863e
00000120: 31f4 73be 88fd a4bd 449b 2bbd 8044 17bd
00000130: 56da 93bc fbbb d33d 8343 253c 9bae 1cbd
00000140: 4531 f3bd 74c9 c9bd 91a5 fb3d 178e 24be
00000150: c8f1 b43d 93fd a4bd af58 bb3d 85d7 0d3e
00000160: b455 a0bb 55a9 5ebe 9016 14ba d442 0bbe
00000170: b35b b43d 9131 92bc 4f27 023e 0bad 13be
00000180: d58c 543d 6d42 643e 0ff3 db3c 71a4 043e
00000190: 2463 3bbd 4bc0 313e 9bf5 323e 42c0 be3c
000001a0: f796 babd fc9d 32be bd1e 073e cbf4 8ebe
000001b0: d4af 0d3e 7aed 483d e927 d43e e6ac 1a3e
000001c0: b2d2 163e a56a c13d 4bad 933e 45a0 c63d
000001d0: 9cf2 ae3d ee0b b23d c983 143e bdf6 ac3d
000001e0: 2275 80be 46f7 5f3c 5be4 003e 8f9a d4bb
000001f0: 802f 753e da9e 54bd 43aa a73e d921 d5bd
00000200: c4cd 8b3d a194 74bd 7500 133e 9484 58bd
00000210: b2cf 89bd 8ecf c03c 6c2f 3f3e d95e 103d
00000220: 7aa6 f93c 2552 b4bd e9dd fcbc 6ac6 cf3d
00000230: c406 253d 757e 0c3e 9fff 573e 1950 613e
00000240: 49a1 dabd d5a3 debe b737 623d e90c ebbd
00000250: db08 5bbd d9b8 f73d b994 80be 8c34 adbd
00000260: 8f9f 00be b50d b9bd 75c4 92bd 81f7 353d
00000270: 05d8 05bd 7088 e93d 626a 873d 2c49 043d
00000280: 143f 85be 1195 70be 80eb 623d 6936 ebbd
00000290: 0125 0dbe db31 9dbb cfc9 b3bc bd37 e2bd
000002a0: 9296 a6be 8eba 363d b0c5 86bd 3b66 c53c
000002b0: ddbf 82bd 16a8 e7bd 234e f83d a398 b8bd
000002c0: 218f dcbd 76b4 f5bd b11f 84be 1a99 b4be
000002d0: 7357 6ebd 9624 ae3d 8143 3abc 7df4 76be
000002e0: 9385 1bbe 0e6f 03be be8b 53bc 0a79 213c
000002f0: 9928 34be 8dd8 d83c 986e e1bc 9029 afbc
00000300: 3e0b 9dbe 280a 25be cef5 60be e516 91be
00000310: cb2c ddbc ad32 4ebd 6594 b8bd 9c47 feb9
00000320: f71d 01be 03af 9ebc 59f4 2fbe 3104 0e3c
00000330: 7c92 96bd 7dd1 a93d 7fd1 81be 5dc0 903d
00000340: 0aac 9dbe 5c9b a9bb 454c c0be 2f5b 73bc
00000350: 1f3e 01bd 1b8b 783d da57 0e3d 32ad 2abe
00000360: 065b d53b 0545 0ebc 1221 01bc 4f09 ccbd
00000370: e116 39be 68ee 523c bfdf 73be 406e dcbd
00000380: beac f03d 7f1b 8c3d 7486 4fbe 5928 8cbd
00000390: 4a72 edbd 9cdc 203e 1e31 2fbe 02ce 3ebe
000003a0: a1e6 dc3a b7dc 38be 666b 753d e57d cdbb
000003b0: 17a8 9fbe 1bc0 c8bd 19b8 acbe 25e1 a33c
000003c0: 987c 39be f8dc 673d 9ebf c03d ddd2 2bbd
000003d0: a54b 49bd c1db ae3d 284f fcbd 8f14 3abe
000003e0: e556 2dbe 881e 9dbd 41e2 a2bd 957b 78be
000003f0: 73e2 853d 4853 153d a56b 4c3e 5de9 37bd

sequential/dense/BiasAdd/ReadVariableOp f4 [8]
0.12630354 -0.20435141 -0.027076585 -0.086256035 -0.13875243 0.21560024 -0.19364189 -0.13129392
00000000: b755 013e 7f41 51be b7cf ddbc 01a7 b0bd
00000010: 1e15 0ebe 4fc6 5c3e 0f4a 46be ea71 06be

sequential/dense_1/BiasAdd/ReadVariableOp f4 [2]
-0.18556698 0.18556541
00000000: 4505 3ebe dc04 3e3e

sequential/batch_normalization/FusedBatchNormV3 f4 [16]
0.15774243 0.46568647 0.095290504 0.04392612 25.370825 28.227657 0.5961393 0.0933934
0.13160276 31.622776 29.151642 25.964859 0.06412635 30.73638 0.08026886 0.18128507
00000000: 3b87 213e 756e ee3e ab27 c33d e0eb 333d
00000010: 73f7 ca41 3ed2 e141 969c 183f 0a45 bf3d
00000020: e0c2 063e 72fb fc41 9036 e941 08b8 cf41
00000030: ad54 833d 1be4 f541 0064 a43d cba2 393e

sequential/batch_normalization/FusedBatchNormV31 f4 [16]
-0.063252404 -0.16658457 -1.4632514 -2.3251624 -0.024046943 -0.04148745 -0.18457635 -1.8008723
-0.011381924 0.20993878 0.02187793 0.20476337 -1.9190019 -0.09400889 -1.7919302 -0.41879445
00000000: 7a8a 81bd 2595 2abe d24b bbbf 76cf 14c0
00000010: 18fe c4bc bfee 29bd 9501 3dbe fc82 e6bf
00000020: 407b 3abc 31fa 563e 5839 b33c 7dad 513e
00000030: dba1 f5bf bc87 c0bd f85d e5bf 3a6c d6be

sequential/batch_normalization_1/FusedBatchNormV3 f4 [8]
0.6010421 1.1547554 0.46129277 0.42537534 0.5606844 0.55474234 0.6785261 0.73684895
00000000: e5dd 193f 06cf 933f 912e ec3e ccca d93e
00000010: 0389 0f3f 9803 0e3f e3b3 2d3f 22a2 3c3f

sequential/batch_normalization_1/FusedBatchNormV31 f4 [8]
-1.2883179 -0.47841156 -1.1946667 -0.5930766 -0.68231714 -0.5951414 -0.46803737 -0.90554893
00000000: 9ae7 a4bf 5cf2 f4be d7ea 98bf ded3 17bf
00000010: 56ac 2ebf 305b 18bf 98a2 efbe 0ed2 67bf

sequential/dense/MatMul f4 [8, 480]
0.05648127 -0.0015126308 0.1553382 0.037230115 0.115254536 0.039981775 -0.09085112 0.12773378
-0.13954559 -0.23258917 0.13520934 0.07556914 0.19335136 0.19864705 -0.14324293 0.067896724
0.06893227 0.08984615 0.031069001 0.14670095 0.19625388 0.10777456 -0.13448003 0.025731841
-0.0102034025 -0.10786853 0.030879494 0.07199024 0.074326046 0.13120523 0.18541388 0.038531534
-0.048892476 -0.20378993 -0.014635448 0.021534704 -0.054811757 -0.029393356 0.076045856 -0.08142142
-0.037693948 -0.3098731 0.058185987 0.024409387 0.08633993 0.027779257 -0.044485137 -0.18779595
-0.13804998 -0.15300843 0.007679911 0.22067794 0.13048992 0.19365151 0.03374437 0.042769246
0.07579061 -0.011724169 0.15649031 0.14761305 0.18614246 0.11897964 -0.076656066 0.19350982
-0.016586117 -0.048739225 0.10395715 0.09132136 0.19541211 0.29274133 -0.089720026 0.15576114
0.058103584 -0.07421925 0.02736534 0.101033755 0.13040826 -0.027470697 -0.10070728 0.2295397
-0.021868896 -0.14713736 -0.12997346 -0.13737781 -0.14927979 0.0180349 -0.14980808 -0.15791227
-0.017298685 -0.1596679 0.0316767 -0.22865532 0.0091699725 -0.058861315 -0.05763114 -0.25728253
-0.048754055 -0.19201009 0.13084733 0.0039752354 0.0508083 0.18403244 0.10211088 -0.14703014
-0.042420242 -0.21096016 0.12532122 0.048019096 0.03712949 0.04468386 0.113603696 -0.09997742
0.03154148 -0.30880982 0.23687221 -0.25042608 0.052555423 -0.048442908 -0.005369052 -0.070910215
0.15337488 -0.34336975 0.15627049 -0.0037329274 0.06181651 0.03608031 -0.033001207 -0.01234453
-0.040376063 -0.47885928 0.15661046 -0.028548287 0.24693318 -0.1605665 -0.04946811 -0.017145589
-0.020163963 -0.17733254 -0.035355914 -0.04521229 0.34252608 0.022712508 0.0013482155 -0.20071873
-0.09559464 -0.03668671 0.015431935 0.043029148 0.053102706 0.09223215 -0.14005528 -0.27596214
0.071661875 -0.25184336 -0.17887285 -0.0914487 0.07189856 0.06317313 -0.056078084 0.045781113
0.11487997 -0.11084937 -0.035813782 -0.008402288 0.1666768 -0.002922458 -0.0469629 -0.12836364
0.1348593 -0.21705817 0.03436778 -0.08836653 0.27540377 0.09647237 0.026038734 -0.04375956
0.08857523 -0.15765081 0.21167308 0.14277965 0.18622372 0.16490105 0.13623866 -0.0048129777
0.01832483 -0.1127745 0.13053045 0.1088372 0.037930742 -0.088516556 0.4043426 0.052838434
-0.05589348 0.08938278 0.20662972 -0.08128545 0.17512545 -0.14081602 0.16515614 0.02947547
0.124683335 -0.045555566 0.037660223 -0.17018607 0.16137794 -0.047253925 -0.0009880903 -0.11965106
-0.09678938 -0.055389475 0.16487443 -0.062195554 0.10662841 0.046186104 0.12173612 -0.034358576
-0.09559714 -0.1553727 0.108545445 -0.02719011 0.14272891 0.093176596 -0.08703576 -0.12526652
0.012762572 -0.15706792 -0.0032382356 0.1552023 0.23101006 0.24572913 0.1493424 -0.09443046
0.060117 -0.34981078 -0.012162099 -0.07758517 0.110843964 0.09329971 -0.11123304 -0.101481535
-0.013750662 -0.0071873134 -0.010065843 -0.13846892 0.07605407 0.17243354 -0.06282448 -0.0170162
0.09773675 -0.0151503915 0.09256698 -0.09241867 0.19619906 0.15811399 -0.13399902 -0.008537894
00000000: e758 673d 7843 c6ba fa10 1f3e 9b7e 183d
00000010: 920a ec3d eec3 233d 2710 babd a5cc 023e
00000020: 0ae5 0ebe db2b 6ebe 5174 0a3e fec3 9a3d
00000030: e6fd 453e 226a 4b3e 46ae 12be 700d 8b3d
00000040: 5d2c 8d3d 4201 b83d 6b84 fe3c c638 163e
00000050: c7f6 483e e9b8 dc3d 22b5 09be 95cb d23c
00000060: 2c2c 27bc 2dea dcbd fef6 fc3c 9e6f 933d
00000070: 4138 983d aa5a 063e 23dd 3d3e 3ed3 1d3d
00000080: 7a43 48bd 4fae 50be 85c9 6fbc 8c69 b03c
00000090: 4b82 60bd 56ca f0bc eebd 9b3d 46c0 a6bd
000000a0: f864 1abd b0a7 9ebe 6e54 6e3d 32f6 c73c
000000b0: fdd2 b03d 5391 e33c 0c36 36bd 954d 40be
000000c0: f95c 0dbe 3eae 1cbe c3a7 fb3b 66f9 613e
000000d0: 269f 053e 954c 463e 8937 0a3d ce2e 2f3d
000000e0: 1b38 9b3d bb16 40bc ff3e 203e e027 173e
000000f0: 219c 3e3e 99ab f33d dbfd 9cbd 7027 463e
00000100: 9cdf 87bc c8a2 47bd 7ce7 d43d b106 bb3d
00000110: 1d1a 483e 31e2 953e 22bf b7bd d97f 1f3e
00000120: 06fe 6d3d 4300 98bd 472d e03c c9ea ce3d
00000130: be89 053e 3a0a e1bc 9e3f cebd 750c 6b3e
00000140: 6626 b3bc 2dab 16be c317 05be c5ac 0cbe
00000150: cddc 18be edbd 933c 4a67 19be c1b3 21be
00000160: f9b5 8dbc fb7f 23be 6dbf 013d 9f24 6abe
00000170: a73d 163c 9018 71bd a10e 6cbd 89ba 83be
00000180: 55b2 47bd 4b9e 44be d8fc 053e b142 823b
00000190: 5d1c 503d 0073 3c3e 821f d13d 128f 16be
000001a0: d9c0 2dbd f105 58be 3554 003e acaf 443d
000001b0: 1815 183d 6c06 373d 0ea9 e83d f6c0 ccbd
000001c0: a431 013d 521c 9ebe a18e 723e d937 80be
000001d0: 5b44 573d 126c 46bd dfee afbb 6039 91bd
000001e0: 4e0e 1d3e 29ce afbe 5f05 203e 21a4 74bb
000001f0: 4f33 7d3d f2c8 133d 462c 07bd b640 4abc
00000200: 5f61 25bd 0b2d f5be 7e5e 203e 19de e9bc
00000210: 0ddc 7c3e 8b6b 24be 139f 4abd e874 8cbc
00000220: e52e a5bc a996 35be 5dd1 10bd 8630 39bd
00000230: 945f af3e 950f ba3c 9bb6 b03a 3689 4dbe
00000240: 1fc7 c3bd ce44 16bd 3ad6 7c3c 553f 303d
00000250: 3982 593d 36e4 bc3d a76a 0fbe e94a 8dbe
00000260: 76c3 923d 9df1 80be 722a 37be 7549 bbbd
00000270: 8d3f 933d ea60 813d 22b2 65bd fa84 3b3d
00000280: 3146 eb3d ff04 e3bd 79b1 12bd c0a9 09bc
00000290: 53ad 2a3e b686 3fbb 2b5c 40bd c271 03be
000002a0: 8e18 0a3e 7f44 5ebe 3bc5 0c3d 83f9 b4bd
000002b0: b901 8d3e 4e93 c53d 2f4f d53c 393d 33bd
000002c0: ee66 b53d 376f 21be d4c0 583e d434 123e
000002d0: 6eb1 3e3e d2db 283e 2682 0b3e 2fb6 9dbb
000002e0: f41d 963c 51f6 e6bd c6a9 053e 0ae6 de3d
000002f0: 445d 1b3d 2b48 b5bd fe05 cf3e 1d6d 583d
00000300: 90f0 64bd 520e b73d be96 533e fc78 a6bd
00000310: 1654 333e 1332 10be b11e 293e 8a76 f13c
00000320: fa59 ff3d 7998 3abd 9b41 1a3d 4245 2ebe
00000330: 4240 253e 558d 41bd cf82 81ba 9d0b f5bd
00000340: 8339 c6bd 13e0 62bd d8d4 283e c4c0 7ebd
00000350: ff5f da3d a42d 3d3d c950 f93d 94bb 0cbd
00000360: 6fc8 c3bd 051a 1fbe 134d de3d cbbd debc
00000370: 8727 123e 5fd3 be3d ce3f b2bd de45 00be
00000380: 1b1a 513c 6ad6 20be 9438 54bb 5aed 1e3e
00000390: e78d 6c3e 6ba0 7b3e 37ed 183e c264 c1bd
000003a0: 3e3d 763d 661a b3be 8a43 47bc f9e4 9ebd
000003b0: 2902 e33d eb13 bf3d 26ce e3bd 8dd5 cfbd
000003c0: 754a 61bc 8e83 ebbb 35eb 24bc ccca 0dbe
000003d0: 3cc2 9b3d 6b92 303e 1faa 80bd 8f65 8bbc
000003e0: 352a c83d 5939 78bc c293 bd3d 0046 bdbd
000003f0: 68e8 483e a2e8 213e 0a37 09be 86e2 0bbc

sequential/dense_1/MatMul f4 [2, 8]
-0.35646468 0.5308458 -0.43458667 -0.04749557 0.49139395 -0.3554648 0.07276512 0.3133341
0.318094 -0.3456712 -0.0036035238 -0.71445715 0.08618359 0.28886774 -0.8481753 -0.72292805
00000000: 8a82 b6be 83e5 073f 2582 debe b78a 42bd
00000010: fd97 fb3e 7bff b5be e105 953d 546d a03e
00000020: 37dd a23e d1fb b0be 1929 6cbb aae6 36bf
00000030: 0681 b03d 79e6 933e 0422 59bf d011 39bf
