runtime_data/silver.tflite (tflite, 21000 bytes, 8 tensors)

sequential/conv2d/BiasAdd/ReadVariableOp f4 [4]
00000000: 4bbe 963f dd43 1b3f 5e72 8bbf d117 08bf
1.1776823 0.60650426 -1.0894277 -0.5316134

sequential/conv2d_1/BiasAdd/ReadVariableOp f4 [4]
00000000: 6005 0bbf ca47 34be 9aa2 43bf 6d7f ccbe
-0.54305077 -0.1760551 -0.76419985 -0.39940968

sequential/conv2d/Conv2D f4 [4, 5, 5, 1]
00000000: 9cec 25bf 51e0 26bf 1571 98be 88db b7ba
00000010: 4edf 8fbd fc89 1bbf be0b 2cbf bd94 c2be
00000020: f9a8 95be b465 e43c 2209 3fbe ad5c afbe
00000030: 1e66 a93c dd5e c13e 5acf ebbc de36 7bbe
00000040: b099 bdbe b588 4bbd 67b5 3b3e 1a7e 4c3e
00000050: 3663 b03c 932d 3f3e 38e8 b7bd 7e29 033e
00000060: 7354 cf3d a250 91be ecd5 90be 8ab9 953d
00000070: 9b00 b23d 37b8 cc3e c650 9abe 21e1 37be
00000080: 9092 8cbe 7674 93be 623d 2dbe 990b 643e
00000090: fb4c 0d3e 07c8 5dbd 1679 5bbe 1a50 6cbe
000000a0: 5f69 633e 44b0 233e 34ca 1bbd 88ac 65be
000000b0: 51e7 c2bd f2bb b33d 006a c63d 07da 763b
000000c0: 8bc8 923d 960b dcbe 283c 81be b96c f53d
000000d0: fb03 9cbe a211 3a3e af83 aabe fd83 0cbd
000000e0: a402 9ebd 5107 d5bc c16f f93d b924 53bc
000000f0: cd76 9b3e 54d1 f43e 78a7 973e 2b4f d8bd
00000100: e615 c3be 6d55 41be d4ff 463d 3596 963a
00000110: c92f 383e 88dd c4bc b23e 95be 10db a3be
00000120: a572 92be aaf8 893d e593 253e 43e5 32be
00000130: dd97 bd3e 7876 6e3e e9b5 ba3e 7292 cb3d
00000140: 3340 66be 1101 1c3e 779d 5ebe 4a2f 8ebe
00000150: 9cad 7a3d 155d 36be 86db 8cbb 0623 b0be
00000160: 27a0 e8be e30a f73d bc41 9ebd 0f69 05be
00000170: 21e9 efb9 4ccb 42be 3f10 48bd a92c 28be
00000180: a926 4dbd 5806 00be 439a 543e 47a1 5b3e
-0.6481416 -0.6518603 -0.29773775 -0.0014027217 -0.07025014 -0.6075742 -0.6720542 -0.38004103
-0.29230478 0.027880527 -0.18655828 -0.34250394 0.020678576 0.37767687 -0.028785396 -0.24532649
-0.37031317 -0.04969092 0.18330918 0.19969979 0.021531682 0.18669729 -0.08979839 0.12808797
0.10123529 -0.2838183 -0.2828821 0.073107794 0.08691522 0.39984295 -0.3013975 -0.17956974
-0.27455568 -0.2879979 -0.16917947 0.22270049 0.13798897 -0.05414584 -0.2143291 -0.23077431
0.22208165 0.15985209 -0.038034633 -0.22429097 -0.09516776 0.08776082 0.09688187 0.0037666576
0.07167157 -0.4297759 -0.25241208 0.11983628 -0.30471787 0.18170789 -0.33303592 -0.03430556
-0.077153474 -0.026004465 0.121795185 -0.012887173 0.30364075 0.47815955 0.29619956 -0.10561975
-0.38102645 -0.18880244 0.04858382 0.0011488857 0.17986979 -0.024031416 -0.29149395 -0.3200307
-0.28603092 0.06736882 0.16169699 -0.17470269 0.37029925 0.2328738 0.3646691 0.099400416
-0.22485428 0.15234782 -0.21739756 -0.27770454 0.061200723 -0.17808945 -0.00429863 -0.3440172
-0.45434687 0.12062623 -0.077273816 -0.13028358 -0.00045759327 -0.19022864 -0.04884362 -0.16423286
-0.050085697 -0.1250242 0.20761971 0.21448241

sequential/conv2d_1/Conv2D f4 [4, 5, 5, 4]
00000000: aec7 963e 73f4 cb3d b586 09bd 1e28 003e
00000010: b6a2 c8bc 11ab 12be a5ab c8bd d287 3dbd
00000020: 6f7c 2bbf 81e8 07bf 2cae 91bd 133c a5bd
00000030: 0430 3abd 221d 133e aed7 7a3d c52e 9c3d
00000040: 1b9b 923e 3403 5b3e 5de8 0dbd ed31 9dbc
00000050: 2542 493e 3345 803e b973 05be 5735 fa3d
00000060: 51b2 a83d 0a73 8dbe 9b20 a9bc cbc0 563d
00000070: 6693 f7be d3ab 4cbe 5811 033b fdb6 75bc
00000080: c4f5 213f ba5b 1abc a49b 40be aef4 3a3d
00000090: 4880 b6be de14 50be e1b5 e4bd 6697 01bf
000000a0: a642 4abe 738d 0abe 2381 903b 3ac0 0bbd
000000b0: c876 dbbd dd7d c33e 1211 c0bd b78c 843d
000000c0: 0f3f 72bd 8987 663d 7e30 c3bb 815b eb3c
000000d0: 94e5 6e3e 9fbe 273e b33f 32be 5894 52bd
000000e0: 7208 07bd 48b9 7e3d 536f 98bc 41dd c8bd
000000f0: 4c34 1c3e 5665 2e3e 4f5a f13d f0b5 2fbe
00000100: 523e f33d 2f5c cabd 2caf 5b3e ae78 0dbe
00000110: 069c a73e a69a 11bd 1a3e 90be 8c5a 3c3e
00000120: e5f2 4c3f dbb7 8f3d f169 50be 83bb 0cbe
00000130: 6aa4 ee3e 4367 09bd a9f7 03be 757f 1c3d
00000140: 5d60 3dbd 8824 753e 183b c7bc e4d7 20be
00000150: 34e0 343e ec8f 863e cba0 133e bf80 5fbe
00000160: c978 623e 2ada 373e c9f6 963c 8f89 acbe
00000170: e788 583e 15f4 a13c 56f4 1dbe b3a2 77be
00000180: 3d0a bd3e cf7d 103c 606d 53be 25e8 b93d
00000190: a9f9 05bc 6b88 1fbe 61df cf3e c687 46be
000001a0: fbff d7bb b530 0abe 6319 64be 95c5 10bf
000001b0: f734 d8bd 512f 58be 460d 2c3e 28dd 7bbe
000001c0: 4ad7 323d 8fe3 e63a b911 89be 3f5c a1be
000001d0: 5f4f 143e 1f4c 91bc a995 85bd aa9b 9bbe
000001e0: 509d 183e 3c4e 903b f6c2 db3d 6115 e5bd
000001f0: 082f 843c a4f7 d4be c192 6e3d fffc b73e
00000200: 661b 3ebe 229c bebd 3959 45be 17ed 0ebf
00000210: 2f37 92be 574c eabc dadf 55bf d775 33be
00000220: 33c7 00bf 3b2a c5bd 9b99 a23e d41c a23e
00000230: 01c1 82bd fb95 5b3c 43dc f7bd 8e7f cdbd
00000240: 0349 e9bc 641b 58bf 20a0 82be 4904 993e
00000250: 9981 9a3e 9eb4 abbe 94b4 05be a3f5 cebd
00000260: 8a19 06bf 88af 2e3e fdf8 e43d c25d 3dbf
00000270: c6d4 f43d fd04 1b3e ea3c fc3c 347a a03c
00000280: de1c 65bd f857 75bd 47d0 c2bd 25af dcbd
00000290: 27e8 10bf 8970 4cbf 9975 44be d606 2ebe
000002a0: ecc2 903d 07f2 7ebe d47a 523e 5c07 09bf
000002b0: 1e9c 3fbf a7fa 2d3e b8eb 37be 9f91 29be
000002c0: 1b8c 19bf 80cc ebbd 6dd2 0bbe 2f5d 9f3e
000002d0: 81a2 d7be e455 49be 5f07 e53c 8b96 c5bd
000002e0: 0e20 8a3d 6af1 c2be b465 5abe c22b 4a3d
000002f0: a3b0 3c3c a479 a63d 3f55 7b3a 8630 80be
00000300: 1eb7 9e3e 21c4 56be 1785 2b3c 9567 a0bd
00000310: 194f 6fbe 3e7d ccbe e8a3 99bb da77 d0bd
00000320: 7bfe 81bc d786 e7ba 5b3a ff3d 8dc1 79be
00000330: f7a8 073c b086 54be 3202 f23c 3032 d2be
00000340: b880 89bd 547e 9dbd b96d 33bd 9326 3fbe
00000350: 51ac 3fbd 1b8f 68be 727d f5be a5a7 29bf
00000360: a53c 2a3e 2499 1bbe c586 90be c0e1 13bf
00000370: 0b45 363c 946b 813d c628 c53e fe37 8cbe
00000380: 9a75 db3b bf23 673c 6321 90bf a6bb 943e
00000390: 45d6 82be cf8b 2bbe aacb e83e a669 4cbe
000003a0: 4bd4 083e daef e2bd 80a9 cc3d 655c fd3d
000003b0: dd22 3fbe 4146 c8be 05d8 883e db10 28be
000003c0: 758b 60be 5365 4dbb d03b c83e 7b3e ae3b
000003d0: 3f6e 9bbe 403e b5bc 40c4 00bf 71ac d73d
000003e0: 697b 263e 0981 d6bc 652f 9ebd 179f 68bd
000003f0: 5f02 09be f4be 443e 7f2a 99bd ebde aabd
0.2944922 0.09958734 -0.033575732 0.12515303 -0.02449165 -0.14323069 -0.097983636 -0.046272106
-0.66986746 -0.5308915 -0.07113299 -0.08068099 -0.045455948 0.14366582 0.061240844 0.07626108
0.2863396 0.2138794 -0.034645427 -0.019188846 0.19654138 0.25052795 -0.13032426 0.12217205
0.08237136 -0.2762683 -0.02064543 0.052429955 -0.48354644 -0.1998742 0.0019999351 -0.014997241
0.63265634 -0.009421283 -0.18809372 0.0456435 -0.35644746 -0.2032046 -0.11167503 -0.5062164
-0.19751987 -0.13530521 0.0044099255 -0.03411887 -0.10716015 0.38181964 -0.09378256 0.06472152
-0.05914217 0.0562816 -0.0059567085 0.028730156 0.23329765 0.1638131 -0.17407112 -0.051411003
-0.03296704 0.062188417 -0.018607771 -0.09807826 0.15254325 0.17030844 0.11784803 -0.17159247
0.11877121 -0.09880864 0.21453542 -0.13815567 0.32736224 -0.035547875 -0.2817238 0.18393916
0.8005813 0.070174895 -0.20352913 -0.13743405 0.46609813 -0.033545744 -0.12887444 0.03820749
-0.046234477 0.23939717 -0.02432017 -0.15707356 0.17663652 0.2628168 0.14416806 -0.21826456
0.22116388 0.17954317 0.018428223 -0.336987 0.21145974 0.019769708 -0.15425238 -0.24183159
0.36921874 0.008819058 -0.20647192 0.09077481 -0.008177199 -0.15579383 0.40600112 -0.19387731
-0.0065917945 -0.13495143 -0.2227531 -0.56551486 -0.10556977 -0.211118 0.16801938 -0.24596083
0.043662347 0.0017615425 -0.26771334 -0.3151569 0.14483403 -0.017736493 -0.06522686 -0.303922
0.1490376 0.0044038575 0.10730545 -0.11185718 0.016135707 -0.41595185 0.058245424 0.35935208
-0.18565139 -0.09307124 -0.19272317 -0.5583052 -0.28557727 -0.028600855 -0.83544695 -0.17525421
-0.50303954 -0.096271954 0.31757817 0.3166262 -0.06384469 0.013402457 -0.121025585 -0.10034095
-0.028477198 -0.84416795 -0.2551279 0.29886082 0.30177 -0.33536237 -0.13057166 -0.10105445
-0.5238272 0.17059147 0.11180303 -0.7397119 0.11954646 0.15138622 0.030790765 0.019589521
-0.055935733 -0.059898347 -0.09512382 -0.10775594 -0.56604236 -0.79859215 -0.19185485 -0.16994795
0.070684284 -0.24897014 0.20554668 -0.53526855 -0.7484759 0.16990148 -0.17961013 -0.16559456
-0.5997941 -0.11513615 -0.1365449 0.3112578 -0.42116168 -0.19661671 0.027957616 -0.096478544
0.06744395 -0.3807481 -0.21327859 0.049358137 0.011516723 0.0812867 0.0009587593 -0.2503702
0.30999082 -0.20973255 0.010468743 -0.07832257 -0.23370017 -0.39939302 -0.0046887286 -0.1017911
-0.015868416 -0.0017664087 0.12462302 -0.2439024 0.00828003 -0.20754504 0.029542062 -0.41053915
-0.06714004 -0.07690111 -0.04380581 -0.18667059 -0.046795193 -0.2271084 -0.4794727 -0.6627143
0.16624697 -0.15195137 -0.2822782 -0.5776634 0.01112486 0.06319347 0.3850767 -0.2738647
0.006697369 0.014107644 -1.1260189 0.29049414 -0.255541 -0.16752551 0.45467883 -0.19962177
0.13362233 -0.11080904 0.09993267 0.123711385 -0.18665643 -0.391161 0.2672731 -0.1641268
-0.21928199 -0.0031340912 0.39108133 0.005317507 -0.3035755 -0.02212441 -0.50299454 0.105309375
0.16258015 -0.026184576 -0.077238835 -0.056792345 -0.13379811 0.19213468 -0.074788086 -0.083432995

sequential/dense/BiasAdd/ReadVariableOp f4 [16]
00000000: 5704 203f d9f2 b1be fdc6 063e b77c c6be
00000010: 7818 88be 88fd f9be 9ba3 c7be 5715 543f
00000020: 9a75 db3e fabe 8c3f aead 953e ec6f 303f
00000030: fcfe 103f 3aee 21bf c6c3 48be 0267 e6be
0.6250662 -0.3475559 0.13161846 -0.38767025 -0.26581168 -0.48826241 -0.3899201 0.8284506
0.4286316 1.0995781 0.2923407 0.6892078 0.56639075 -0.6325413 -0.19605932 -0.45000464

sequential/dense_1/BiasAdd/ReadVariableOp f4 [2]
00000000: bd5b 59bf a15b 593f
-0.84905607 0.8490544

sequential/dense/MatMul f4 [16, 240]
00000000: 59f4 f0bd 9ded 20bd 49bb bebd b040 4d3b
00000010: f13c 413e eb64 26be cf24 bdbd 4a82 57bd
00000020: 1bad c23d e35c 7fbc e140 02be 3f8d 24be
00000030: 0104 78bc 066f eb3d 3de6 0fbe 2ec0 00be
00000040: 13fd 313b 8917 8b3e eb7d 463d 1755 083e
00000050: 6fac e13e 96ac 1c3e dc0b 1c3e 98e8 d03d
00000060: e38f b23a e568 af3e cb7c 993e 9f2e 5f3e
00000070: b34b 623d fc0a 2a3e cd51 fbbd a82a 063d
00000080: eb86 923c ad90 bcbc 1c9b 9bbe 87e3 e5bd
00000090: a63b e3bd 6ecb 6fbd 34eb 1ebe e99b bbbe
000000a0: 3d8a 32bf 2c7f 37bf 7cea f0be a869 54bf
000000b0: 082e e3bd 2dc4 fe3d e926 f5be ec0c 8cbe
000000c0: b1fc c3bd bdf1 afbe be1f 9bbe e636 d7be
000000d0: 5267 003e 99e6 ab3d cd0b 543b 0901 a4be
000000e0: 8243 8abd 3ace 0c3d 3314 ed3d 87c5 d33d
000000f0: 33b7 32be 9009 0ebc a718 e1bc 8d7c 3fbc
00000100: 0b47 743e 8dc4 2ebd 53ee 2abe a5ee 8cbb
00000110: 029a ff3d e441 003e 5f15 78be f714 cbbd
00000120: d640 1a3e 126f 983d af8c 293e 1227 d7be
00000130: 1533 4fbe 0b82 20bd 7c1d a8be f2f2 cbbe
00000140: bd0a ce3c 764e 56be 3145 46bf 8307 27be
00000150: eaf8 a4be cc2b a0be 5cdd 2a3e bff5 c7be
00000160: 9b58 80be 713d 033e 505e 1abe 8716 3abd
00000170: 2766 15be 60c6 993e 9528 883e 3919 f53d
00000180: 2a8e 1f3e 31b9 083e e8cf 4f3e 0f11 f63d
00000190: 999e 3c3d a860 263e 3d62 68be 2f0f 093d
000001a0: a21c 6ebe b8a4 edbd 5ba3 dabe 530d 65be
000001b0: 7bf7 18be 0f13 ddbe 7a43 c8be 271f 0cbe
000001c0: c7fd e63b 8b0c cabd e983 503c 3fa0 f63d
000001d0: 8463 8b3d f9ad f13e 2078 6e3d e2c7 01be
000001e0: 7b10 073e 152f 5f3d 2e36 2abe 90cb bbbe
000001f0: c624 9abe b05f 583e 626b b8be 8c2f b6be
00000200: 03e5 7fbe eb6d 233e b021 55bd 8c7f 5dbe
00000210: 7f98 e5bd 74cc cd3e cc9e 4dbd 12fa e3bd
00000220: c1f8 853d 9c2a 393e ca05 523e db38 21be
00000230: 56a2 22be c2ed 7dbe 9a67 0bbe eb8f 2bbe
00000240: d27a 893d 8b66 f4be 04d9 bebd 5b8b 4fbe
00000250: 3b35 07bd ec02 90be f99f 13be b3c8 3bbe
00000260: de09 89be 3012 ce3e 4124 213e c7d6 363e
00000270: ef05 5ebe 13bd 713c 5c60 863d 51e6 9fbd
00000280: 79ed 773e 56ce 2f3b e9c9 f6bd 9143 c7be
00000290: e13f a33d 64f6 563e 5a1e bc3d 574d 94be
000002a0: 26ec 8a3e 091f f13d 031c 52be 7fd8 92be
000002b0: 17c9 253e 3fe4 3a3e 2bf1 803d 7050 1abd
000002c0: 4003 5c3d dda3 513e f415 1a3e 4e52 0abe
000002d0: 6c25 1c3a 887d bbbe 1f1a 93bd e151 683e
000002e0: 68c0 1a3f 852d 40bd 7465 f0bd 28a6 2ebe
000002f0: fb1a 313e 9eac cebe 2c1a cd3e 5ea7 f6be
00000300: bbae 863e 372c 8f3d f961 813d 5d0a 893e
00000310: 2086 443e 6e48 8dbe a3e9 113e ddc6 183e
00000320: ea11 b5bb 4a8b 433e fb19 e53d da7b 8e3e
00000330: 360d 57be 582f 3bbd 2d64 d03d 0146 c33d
00000340: 0ba7 563e 0b01 2e3d 1b48 0ebd 60f4 323c
00000350: 5674 77bb ce43 b93c 18ac babd 7687 393e
00000360: be61 883d 4f49 24be 380a 333d 7874 9d3d
00000370: 054d 9b3d 5d7c d2bd fe13 10be 8f8c 5fbc
00000380: f630 983e 9918 c3bc e5ea 8bbd 9481 103e
00000390: a291 823e c2de 8abd 2c74 583e 2769 e2bd
000003a0: c29c 2e3e 9982 b43d 8e1b 3d3e 8c37 97bc
000003b0: f22e 7d3e d985 8a3d 2be7 16be 1047 ff3d
000003c0: 74a0 dabe 1d4b bcbd 004e 0c3d adbf 1eba
000003d0: b4f2 8fbc e35f 72bd c3ee 533e 1987 85bd
000003e0: 61e4 9fbe 5079 7abe b56a 933d c42c 923d
000003f0: 36ea 5ebe 04a5 5dbe d707 f3bd 7fd6 7e3e
-0.117653556 -0.039289106 -0.093130656 0.0031319074 0.18870904 -0.16249435 -0.09235536 -0.052614488
0.095056735 -0.015586111 -0.12720062 -0.16069506 -0.015137673 0.114957854 -0.14052673 -0.1257331
0.00271589 0.27166393 0.04845993 0.13313709 0.4407687 0.15300211 0.15238899 0.10200614
0.0013623204 0.34259716 0.29978022 0.21795128 0.055247974 0.16605753 -0.12271462 0.032755524
0.0178866 -0.023018206 -0.30391777 -0.11225038 -0.110953614 -0.058543615 -0.1551941 -0.36642388
-0.69742185 -0.71678424 -0.47053897 -0.8297372 -0.11092764 0.12439761 -0.4788125 -0.2735361
-0.095696814 -0.3436412 -0.30297655 -0.42034072 0.12539414 0.083935924 0.0032355667 -0.3203204
-0.06751157 0.03437636 0.11576118 0.1034041 -0.17452697 -0.008669272 -0.027477575 -0.01168741
0.23855226 -0.042667914 -0.16692476 -0.0043009096 0.124805465 0.12525135 -0.24226902 -0.09916108
0.15063795 0.0744306 0.16557573 -0.42021996 -0.2023433 -0.03918652 -0.32834995 -0.3983379
0.025151605 -0.20928368 -0.7744933 -0.16311459 -0.32221156 -0.31283414 0.16686004 -0.39054677
-0.250676 0.12816407 -0.1507504 -0.04543164 -0.1458975 0.3003416 0.26593462 0.119677015
0.15581575 0.13351895 0.20294154 0.120149724 0.046049688 0.16247809 -0.22693725 0.033461746
-0.2325311 -0.11603683 -0.42702755 -0.22368364 -0.14938156 -0.43178603 -0.3911398 -0.13683759
0.0070492956 -0.09865674 0.012726762 0.12042283 0.068060905 0.47203043 0.05822003 -0.12673905
0.1318988 0.05448826 -0.1662223 -0.36678743 -0.3010618 0.21130252 -0.36019427 -0.3558315
-0.24989705 0.15959899 -0.05203408 -0.21630687 -0.11210727 0.40195048 -0.05020027 -0.111316815
0.06541587 0.1808266 0.20510021 -0.15744345 -0.15882239 -0.24797729 -0.1361374 -0.16754119
0.06712879 -0.47734484 -0.09318736 -0.20268004 -0.03300975 -0.2812723 -0.14416493 -0.1833828
-0.2676534 0.4024825 0.15736486 0.17855369 -0.21681951 0.014754551 0.06561348 -0.07807601
0.24211682 0.0026825867 -0.1205023 -0.38918737 0.07971168 0.20992428 0.091854766 -0.28965256
0.27133292 0.117734976 -0.20518498 -0.28680798 0.16189991 0.18251131 0.06295999 -0.037674367
0.053714037 0.20472665 0.15047437 -0.13507959 0.0005956504 -0.3661921 -0.071827166 0.22687484
0.6044984 -0.04691841 -0.11738101 -0.17055571 0.17295448 -0.4036607 0.4005903 -0.48174566
0.26305184 0.06990855 0.06317515 0.2676572 0.1919179 -0.27594322 0.14249282 0.1491961
-0.005525817 0.19096103 0.11186596 0.27828866 -0.21001133 -0.045699447 0.10175357 0.095348366
0.2096216 0.042481463 -0.034736734 0.010922521 -0.003775855 0.02261534 -0.091148555 0.1811808
0.06659268 -0.1604359 0.043710917 0.0768823 0.0758305 -0.10277627 -0.14070126 -0.013644352
0.29724854 -0.02381544 -0.06831912 0.1411193 0.25501734 -0.06780769 0.21138066 -0.110552125
0.17051986 0.08813972 0.18467543 -0.018459104 0.2472494 0.06763811 -0.14736621 0.12464726
-0.4270054 -0.09194014 0.034254074 -0.00060557836 -0.017571785 -0.059173476 0.20696549 -0.065199085
-0.31228927 -0.2446034 0.07198087 0.071374446 -0.21769032 -0.2164498 -0.1186673 0.24886511

sequential/dense_1/MatMul f4 [2, 16]
00000000: 2a3a 1dbd 55ab c43d 6cb7 04be e558 3abe
00000010: 38af 91be a665 d8be 0baf a23e 0849 cabe
00000020: 2dad 9ebe 1ecf 92bd eaf0 edbd b515 953e
00000030: 14f9 12bf ad8b d13e a271 8b3d 1b46 0fbc
00000040: 8abd dc3d 5e5e a4bc 0e92 7a3b a125 56be
00000050: 8504 cdbe 23b4 0cbf 211a 0c3e 6d94 00be
00000060: 79bf 26be 0f85 cc3d 7f3c d63c 0f16 ce3e
00000070: 55fc f0be 0046 aa3e f973 283e 7424 15be
-0.038385548 0.096029915 -0.12960595 -0.18197973 -0.28453994 -0.42265052 0.31774172 -0.39508843
-0.30991498 -0.07168411 -0.11618216 0.29118124 -0.57411313 0.40926877 0.06808783 -0.008744742
0.10778339 -0.020064529 0.0038234028 -0.20912792 -0.4004251 -0.54962367 0.13681842 -0.1255662
-0.16283979 0.099863164 0.026151894 0.40251204 -0.47067514 0.3325653 0.1645049 -0.14564687
