runtime_data/victims_v3.tflite (tflite, 44664 bytes, 18 tensors)

model_1/logits/Conv2D i1 [3, 1, 1, 32]
68 25 127 -59 -32 30 -55 -1
-23 59 6 69 42 -41 21 -14
-40 37 56 61 -27 -39 0 -53
-71 50 -36 60 14 52 -10 69
59 -30 -102 37 -3 127 -3 2
120 -70 3 -104 -97 114 47 -49
92 -38 7 -94 -104 22 122 68
35 31 13 -22 -94 -56 -17 -69
-44 80 -111 85 82 -40 -49 112
91 33 127 -43 -125 -85 89 122
-81 -51 9 -116 73 112 -55 -83
99 -49 -21 -117 8 -82 -26 -61
00000000: 4419 7fc5 e01e c9ff e93b 0645 2ad7 15f2
00000010: d825 383d e5d9 00cb b932 dc3c 0e34 f645
00000020: 3be2 9a25 fd7f fd02 78ba 0398 9f72 2fcf
00000030: 5cda 07a2 9816 7a44 231f 0dea a2c8 efbb
00000040: d450 9155 52d8 cf70 5b21 7fd5 83ab 597a
00000050: afcd 098c 4970 c9ad 63cf eb8b 08ae e6c3

model_1/head/Conv2D i1 [32, 1, 1, 96]
-22 -29 104 -7 58 1 -62 -86
56 -79 -78 -1 57 27 -37 49
-41 -16 -26 -34 -76 -98 17 90
-91 -15 56 -22 98 2 -9 -72
67 -57 -67 50 -85 -80 -67 42
78 -80 -64 66 45 -78 73 -24
21 -33 -36 74 -83 -26 -67 74
-8 60 90 -127 -54 68 -34 56
5 5 86 67 29 38 65 -92
58 -89 31 81 -62 28 -70 30
57 4 65 -1 -55 -36 -86 110
16 45 4 -84 14 43 24 42
-67 45 -72 17 -40 89 43 12
96 -114 -84 90 64 -38 15 46
103 -57 13 112 -49 4 37 32
36 13 -70 101 27 -2 110 -58
69 105 -1 25 57 63 -27 -56
-61 6 -27 -104 -50 43 -26 -52
-31 -76 121 61 51 96 -72 -45
40 106 70 108 -77 113 -71 -75
-55 47 86 48 106 46 6 -20
-117 93 -51 47 79 -41 -40 81
-100 93 -67 -116 23 127 -47 -80
87 112 95 -47 89 93 31 -23
41 18 -58 84 56 -24 76 43
-66 84 -32 52 63 21 68 -29
-53 2 30 24 -60 41 90 33
13 20 127 -16 -55 70 55 57
-35 -30 -75 -65 -54 47 54 -22
-88 -21 -9 8 -64 105 -15 -32
55 28 90 -71 -32 23 7 22
-68 82 -20 11 -25 41 -26 64
00000000: eae3 68f9 3a01 c2aa 38b1 b2ff 391b db31
00000010: d7f0 e6de b49e 115a a5f1 38ea 6202 f7b8
00000020: 43c7 bd32 abb0 bd2a 4eb0 c042 2db2 49e8
00000030: 15df dc4a ade6 bd4a f83c 5a81 ca44 de38
00000040: 0505 5643 1d26 41a4 3aa7 1f51 c21c ba1e
00000050: 3904 41ff c9dc aa6e 102d 04ac 0e2b 182a
00000060: bd2d b811 d859 2b0c 608e ac5a 40da 0f2e
00000070: 67c7 0d70 cf04 2520 240d ba65 1bfe 6ec6
00000080: 4569 ff19 393f e5c8 c306 e598 ce2b e6cc
00000090: e1b4 793d 3360 b8d3 286a 466c b371 b9b5
000000a0: c92f 5630 6a2e 06ec 8b5d cd2f 4fd7 d851
000000b0: 9c5d bd8c 177f d1b0 5770 5fd1 595d 1fe9
000000c0: 2912 c654 38e8 4c2b be54 e034 3f15 44e3
000000d0: cb02 1e18 c429 5a21 0d14 7ff0 c946 3739
000000e0: dde2 b5bf ca2f 36ea a8eb f708 c069 f1e0
000000f0: 371c 5ab9 e017 0716 bc52 ec0b e729 e640

model_1/block_5_expand/Conv2D i1 [96, 1, 1, 16]
-57 64 -7 -32 -16 -64 -45 -62
56 -68 44 -40 85 -127 17 -115
-121 60 -114 -119 -89 11 -40 90
-27 -3 87 -93 41 127 17 61
-54 -15 -73 -22 11 -101 51 -78
-94 127 91 52 58 66 -66 119
-41 -91 1 -8 -79 30 -67 -120
-15 24 31 -60 -92 -19 -127 -71
90 19 -6 57 -65 14 -127 24
-12 62 16 67 -37 8 -61 -123
-122 67 -117 -53 58 -85 -10 -59
99 -47 36 -59 21 -93 -127 -87
-7 -43 -32 37 -93 91 23 -36
-24 -58 126 -48 -7 -14 -127 12
-34 93 127 -75 62 81 10 -70
36 41 -55 5 45 -38 36 73
-78 11 29 -39 36 -40 127 98
-82 -37 -66 -62 15 104 -71 -44
24 34 98 59 -123 -52 -127 -108
63 1 125 32 -97 -89 63 -34
-29 -127 -1 -75 -114 27 42 19
-44 -74 -6 72 -21 65 -113 24
101 -56 -3 79 -66 -66 32 -18
124 127 -52 33 18 -50 -24 83
-78 -65 127 -34 45 -59 63 31
38 -38 101 89 -34 46 -98 33
-24 -17 2 -4 15 -19 126 28
-73 1 22 17 -13 127 66 -48
124 -70 117 -7 47 94 127 95
93 70 61 43 76 -20 48 -59
7 89 15 -25 16 127 -66 52
-39 -18 -33 -20 -14 83 -33 -40
00000000: c740 f9e0 f0c0 d3c2 38bc 2cd8 5581 118d
00000010: 873c 8e89 a70b d85a e5fd 57a3 297f 113d
00000020: caf1 b7ea 0b9b 33b2 a27f 5b34 3a42 be77
00000030: d7a5 01f8 b11e bd88 f118 1fc4 a4ed 81b9
00000040: 5a13 fa39 bf0e 8118 f43e 1043 db08 c385
00000050: 8643 8bcb 3aab f6c5 63d1 24c5 15a3 81a9
00000060: f9d5 e025 a35b 17dc e8c6 7ed0 f9f2 810c
00000070: de5d 7fb5 3e51 0aba 2429 c905 2dda 2449
00000080: b20b 1dd9 24d8 7f62 aedb bec2 0f68 b9d4
00000090: 1822 623b 85cc 8194 3f01 7d20 9fa7 3fde
000000a0: e381 ffb5 8e1b 2a13 d4b6 fa48 eb41 8f18
000000b0: 65c8 fd4f bebe 20ee 7c7f cc21 12ce e853
000000c0: b2bf 7fde 2dc5 3f1f 26da 6559 de2e 9e21
000000d0: e8ef 02fc 0fed 7e1c b701 1611 f37f 42d0
000000e0: 7cba 75f9 2f5e 7f5f 5d46 3d2b 4cec 30c5
000000f0: 0759 0fe7 107f be34 d9ee dfec f253 dfd8

model_1/block_4_project/Conv2D i1 [16, 1, 1, 96]
18 31 12 9 -25 -75 -12 23
-35 -57 13 -2 37 -58 49 29
-92 -42 29 3 70 29 -68 45
3 72 127 65 27 80 48 -21
18 3 18 2 44 42 -3 -13
106 33 30 -14 -4 4 3 -34
17 -42 98 -21 -62 2 51 22
15 -29 6 34 -5 41 -51 8
2 -20 58 19 3 -48 9 29
41 36 24 33 65 -33 42 36
-13 51 53 36 -50 1 -14 63
23 14 -83 -12 19 5 105 79
25 39 -40 -12 21 -56 125 -99
-68 -50 -102 -60 15 -36 -48 -65
-32 -15 -47 -11 -1 -123 120 -67
-23 20 6 79 -79 11 -32 26
-70 27 6 -23 -34 69 -60 89
23 2 8 -73 62 -80 12 41
-101 -1 57 -118 -62 31 66 75
-3 16 -77 14 -66 -46 -17 -29
38 39 114 33 -76 -127 18 35
4 91 -28 43 -90 -43 126 -61
61 -23 47 -75 -26 -77 -27 1
-45 -57 14 -1 107 -58 -23 41
4 -10 16 -15 57 43 -60 72
-55 46 7 -18 27 -10 9 41
21 -29 -127 -7 -21 -25 -11 29
-4 7 -37 12 -33 -12 -26 59
-1 -36 5 2 -43 39 -25 -25
51 3 3 43 19 50 14 2
-66 1 -5 7 -20 38 31 -59
29 17 43 22 -9 -22 -8 66
00000000: 121f 0c09 e7b5 f417 ddc7 0dfe 25c6 311d
00000010: a4d6 1d03 461d bc2d 0348 7f41 1b50 30eb
00000020: 1203 1202 2c2a fdf3 6a21 1ef2 fc04 03de
00000030: 11d6 62eb c202 3316 0fe3 0622 fb29 cd08
00000040: 02ec 3a13 03d0 091d 2924 1821 41df 2a24
00000050: f333 3524 ce01 f23f 170e adf4 1305 694f
00000060: 1927 d8f4 15c8 7d9d bcce 9ac4 0fdc d0bf
00000070: e0f1 d1f5 ff85 78bd e914 064f b10b e01a
00000080: ba1b 06e9 de45 c459 1702 08b7 3eb0 0c29
00000090: 9bff 398a c21f 424b fd10 b30e bed2 efe3
000000a0: 2627 7221 b481 1223 045b e42b a6d5 7ec3
000000b0: 3de9 2fb5 e6b3 e501 d3c7 0eff 6bc6 e929
000000c0: 04f6 10f1 392b c448 c92e 07ee 1bf6 0929
000000d0: 15e3 81f9 ebe7 f51d fc07 db0c dff4 e63b
000000e0: ffdc 0502 d527 e7e7 3303 032b 1332 0e02
000000f0: be01 fb07 ec26 1fc5 1d11 2b16 f7ea f842

model_1/block_4_depthwise_BN/FusedBatchNormV3;model_1/block_4_depthwise/depthwise;model_1/block_5_expand/Conv2D i1 [1, 3, 3, 96]
-26 -13 9 -34 68 -20 92 -5
-14 2 0 -41 -15 -11 -9 59
-13 -2 -66 -47 12 51 75 115
0 -30 -10 2 12 7 28 -2
-65 15 -9 -48 -13 -21 -55 1
8 -25 16 -38 -36 41 -9 -22
-41 30 -16 64 -80 16 38 -24
24 -1 -6 -23 -33 -34 1 -53
-20 -43 -41 4 6 34 -25 21
2 -8 -25 -30 127 -5 127 -92
-84 3 -61 -50 -43 -3 -3 23
-56 -9 -24 -26 4 31 9 15
-6 48 99 -25 -37 -20 127 6
0 -11 -32 4 -41 5 -70 127
-8 63 33 -46 -23 127 127 89
31 -21 69 97 127 40 127 -28
-127 0 -64 -24 -46 -62 127 -15
-14 -127 -32 -68 58 -37 -3 -14
42 29 23 127 -84 42 -81 -15
-75 -6 -12 32 -23 -120 -111 -51
-28 -1 -1 -41 -19 17 -36 104
-127 -19 1 -41 -62 -127 -4 -127
-127 4 54 -99 127 127 -71 27
-127 5 40 4 4 127 -28 -83
-38 15 -11 3 65 -27 76 -26
-27 13 -8 -7 -6 -7 -16 -8
-6 -6 -11 -55 -3 20 43 67
-18 -23 16 -32 13 19 22 10
2 12 -16 60 -24 -39 -63 38
3 17 -7 -12 -30 -34 -35 -31
-26 17 -11 39 32 -12 11 -27
69 -17 -2 -31 -12 -17 -65 2
00000000: e6f3 09de 44ec 5cfb f202 00d7 f1f5 f73b
00000010: f3fe bed1 0c33 4b73 00e2 f602 0c07 1cfe
00000020: bf0f f7d0 f3eb c901 08e7 10da dc29 f7ea
00000030: d71e f040 b010 26e8 18ff fae9 dfde 01cb
00000040: ecd5 d704 0622 e715 02f8 e7e2 7ffb 7fa4
00000050: ac03 c3ce d5fd fd17 c8f7 e8e6 041f 090f
00000060: fa30 63e7 dbec 7f06 00f5 e004 d705 ba7f
00000070: f83f 21d2 e97f 7f59 1feb 4561 7f28 7fe4
00000080: 8100 c0e8 d2c2 7ff1 f281 e0bc 3adb fdf2
00000090: 2a1d 177f ac2a aff1 b5fa f420 e988 91cd
000000a0: e4ff ffd7 ed11 dc68 81ed 01d7 c281 fc81
000000b0: 8104 369d 7f7f b91b 8105 2804 047f e4ad
000000c0: da0f f503 41e5 4ce6 e50d f8f9 faf9 f0f8
000000d0: fafa f5c9 fd14 2b43 eee9 10e0 0d13 160a
000000e0: 020c f03c e8d9 c126 0311 f9f4 e2de dde1
000000f0: e611 f527 20f4 0be5 45ef fee1 f4ef bf02

model_1/block_4_expand/Conv2D i1 [96, 1, 1, 16]
47 -4 -31 74 -127 -19 91 81
80 90 4 72 1 -4 17 91
-26 13 -89 9 127 112 -11 5
-10 3 -52 31 -51 61 -52 -40
-28 60 99 0 71 69 -5 28
35 4 27 -15 41 -127 1 7
127 -11 8 -10 26 54 -3 24
21 45 -70 -27 -50 50 -42 70
-59 6 -1 -20 -126 9 -56 -44
30 -8 -22 -46 -8 25 -27 127
-122 -2 33 19 127 24 31 45
-64 2 -18 13 -92 87 -98 -36
-127 25 -50 49 -14 -53 74 27
4 -48 -44 27 3 -10 -40 21
-28 127 46 -99 61 57 107 35
5 23 16 65 82 20 -22 26
-58 -23 -93 40 -52 107 -56 -71
-4 -47 72 23 127 28 -70 38
-9 -127 -9 72 -35 -68 -12 51
54 38 4 66 -60 5 3 -36
-38 -93 -120 78 -70 121 48 -54
44 -104 66 -2 41 127 -81 62
-23 -85 -1 13 -18 103 29 -35
23 18 14 -70 5 97 -96 127
7 -53 -60 68 -97 -127 32 36
83 62 -65 104 -39 -69 -30 -16
-76 -20 -36 2 -19 0 32 18
-26 127 -4 -30 42 39 17 -4
-127 -24 -27 -42 -19 125 -24 -78
117 -44 73 2 101 -26 -77 -56
-9 -127 88 -34 -53 -26 -3 59
1 -60 -85 -48 90 -55 -3 -27
00000000: 2ffc e14a 81ed 5b51 505a 0448 01fc 115b
00000010: e60d a709 7f70 f505 f603 cc1f cd3d ccd8
00000020: e43c 6300 4745 fb1c 2304 1bf1 2981 0107
00000030: 7ff5 08f6 1a36 fd18 152d bae5 ce32 d646
00000040: c506 ffec 8209 c8d4 1ef8 ead2 f819 e57f
00000050: 86fe 2113 7f18 1f2d c002 ee0d a457 9edc
00000060: 8119 ce31 f2cb 4a1b 04d0 d41b 03f6 d815
00000070: e47f 2e9d 3d39 6b23 0517 1041 5214 ea1a
00000080: c6e9 a328 cc6b c8b9 fcd1 4817 7f1c ba26
00000090: f781 f748 ddbc f433 3626 0442 c405 03dc
000000a0: daa3 884e ba79 30ca 2c98 42fe 297f af3e
000000b0: e9ab ff0d ee67 1ddd 1712 0eba 0561 a07f
000000c0: 07cb c444 9f81 2024 533e bf68 d9bb e2f0
000000d0: b4ec dc02 ed00 2012 e67f fce2 2a27 11fc
000000e0: 81e8 e5d6 ed7d e8b2 75d4 4902 65e6 b3c8
000000f0: f781 58de cbe6 fd3b 01c4 abd0 5ac9 fde5

model_1/block_3_project/Conv2D i1 [16, 1, 1, 48]
20 39 20 -34 63 73 -39 54
-15 112 0 47 -36 32 -14 46
37 84 57 -73 -72 77 -11 62
57 49 45 58 -42 -44 -14 90
-39 1 -76 63 43 -127 -30 28
22 -27 62 -3 -15 -58 -63 -3
-53 -2 -84 -38 6 86 -50 13
-16 -30 -37 35 54 -8 -29 -30
-25 -24 -3 19 -58 32 -96 -39
-55 -37 42 71 -19 -25 46 -50
10 -47 -29 46 2 -51 127 -37
-32 32 -51 -21 41 53 30 17
-6 0 59 -26 -18 -86 20 25
106 77 -68 25 108 -53 127 80
-72 -28 -29 29 86 -83 -41 -82
3 -36 38 -72 42 54 -43 15
35 -29 53 52 -82 2 0 -22
26 36 70 -17 22 -101 95 -46
47 6 -19 -35 29 108 8 -5
52 -57 23 -37 -54 5 4 37
-45 -65 43 -127 -19 9 -28 -8
-36 87 124 60 -21 -42 25 45
59 -41 99 43 -45 -57 -3 60
26 -1 -1 5 13 21 -18 -15
89 -10 21 -58 85 77 53 4
90 -10 -109 21 26 -16 17 -14
-101 -120 -27 -85 -23 42 -29 -27
-69 127 -88 104 -51 -56 15 86
47 -45 9 -18 -6 11 -28 33
-41 -4 -5 61 -48 97 -25 -46
6 -2 -57 8 -13 47 18 -14
61 58 40 93 57 -30 27 0
00000000: 1427 14de 3f49 d936 f170 002f dc20 f22e
00000010: 2554 39b7 b84d f53e 3931 2d3a d6d4 f25a
00000020: d901 b43f 2b81 e21c 16e5 3efd f1c6 c1fd
00000030: cbfe acda 0656 ce0d f0e2 db23 36f8 e3e2
00000040: e7e8 fd13 c620 a0d9 c9db 2a47 ede7 2ece
00000050: 0ad1 e32e 02cd 7fdb e020 cdeb 2935 1e11
00000060: fa00 3be6 eeaa 1419 6a4d bc19 6ccb 7f50
00000070: b8e4 e31d 56ad d7ae 03dc 26b8 2a36 d50f
00000080: 23e3 3534 ae02 00ea 1a24 46ef 169b 5fd2
00000090: 2f06 eddd 1d6c 08fb 34c7 17db ca05 0425
000000a0: d3bf 2b81 ed09 e4f8 dc57 7c3c ebd6 192d
000000b0: 3bd7 632b d3c7 fd3c 1aff ff05 0d15 eef1
000000c0: 59f6 15c6 554d 3504 5af6 9315 1af0 11f2
000000d0: 9b88 e5ab e92a e3e5 bb7f a868 cdc8 0f56
000000e0: 2fd3 09ee fa0b e421 d7fc fb3d d061 e7d2
000000f0: 06fe c708 f32f 12f2 3d3a 285d 39e2 1b00

model_1/block_3_depthwise_BN/FusedBatchNormV3;model_1/block_3_depthwise/depthwise i1 [1, 3, 3, 48]
-82 51 -127 103 -100 80 -52 92
-59 -78 90 -69 72 -100 -75 -85
113 96 109 -127 69 -127 75 -90
-111 -63 72 127 -100 -40 -66 101
69 -78 43 -123 -69 -114 105 -52
-3 -78 88 -90 97 39 -89 -93
-103 58 -55 112 -82 127 -23 68
-127 -100 116 -74 74 -127 -64 -92
100 127 103 -125 83 -120 95 -127
-100 -108 61 101 36 -74 -83 118
103 -127 72 -127 -127 -105 111 -29
-85 89 124 -127 -40 117 -127 -72
-62 31 -4 21 -10 76 -44 16
-64 -29 73 -34 46 -69 -37 -41
41 50 104 -73 18 -76 40 -62
-103 -55 10 35 127 -34 -32 78
30 -71 18 -50 -40 -56 41 -68
-114 -57 14 -50 -94 70 -74 -65
-108 75 -50 127 -75 117 -127 127
-93 -102 93 -109 107 -112 -111 -127
127 111 -35 -92 109 -108 127 -40
-73 -64 101 109 -118 -51 -127 60
117 35 91 -89 -101 -127 104 -80
-99 -103 127 -62 127 45 -80 -113
-127 127 -99 121 -127 106 -116 96
-107 -127 127 -127 127 -124 -127 -97
99 126 -64 -83 127 -98 123 -78
-110 -127 127 101 42 -127 -123 121
127 25 127 -105 -115 -109 127 -127
-76 127 109 -86 -60 127 -124 -127
-98 61 -64 42 -50 40 -74 54
-49 -25 78 -59 77 -103 -79 -25
00000000: ae33 8167 9c50 cc5c c5b2 5abb 489c b5ab
00000010: 7160 6d81 4581 4ba6 91c1 487f 9cd8 be65
00000020: 45b2 2b85 bb8e 69cc fdb2 58a6 6127 a7a3
00000030: 993a c970 ae7f e944 819c 74b6 4a81 c0a4
00000040: 647f 6783 5388 5f81 9c94 3d65 24b6 ad76
00000050: 6781 4881 8197 6fe3 ab59 7c81 d875 81b8
00000060: c21f fc15 f64c d410 c0e3 49de 2ebb dbd7
00000070: 2932 68b7 12b4 28c2 99c9 0a23 7fde e04e
00000080: 1eb9 12ce d8c8 29bc 8ec7 0ece a246 b6bf
00000090: 944b ce7f b575 817f a39a 5d93 6b90 9181
000000a0: 7f6f dda4 6d94 7fd8 b7c0 656d 8acd 813c
000000b0: 7523 5ba7 9b81 68b0 9d99 7fc2 7f2d b08f
000000c0: 817f 9d79 816a 8c60 9581 7f81 7f84 819f
000000d0: 637e c0ad 7f9e 7bb2 9281 7f65 2a81 8579
000000e0: 7f19 7f97 8d93 7f81 b47f 6daa c47f 8481
000000f0: 9e3d c02a ce28 b636 cfe7 4ec5 4d99 b1e7

model_1/block_3_expand/Conv2D i1 [48, 1, 1, 8]
72 43 127 -36 71 106 -89 -47
6 -78 -127 6 54 23 28 4
-127 -8 -74 -23 42 16 -73 -42
49 67 127 -90 -20 -119 2 -19
-127 26 -43 -16 39 17 -40 -47
-93 22 -54 -7 10 28 -91 -127
-26 -125 -127 46 94 -3 13 44
-74 -127 -109 -91 -60 -72 4 98
97 28 -14 3 96 -83 -127 5
-37 42 -39 83 -54 -32 127 -31
-23 127 32 78 121 -23 -15 54
-70 -45 -20 -6 -89 109 127 -21
81 35 -127 29 -18 -42 -62 -20
65 -33 -75 17 4 -127 -27 -27
1 -79 75 20 127 -93 -59 16
-31 -39 -12 127 62 74 -74 22
120 27 -46 13 68 -116 -127 -28
50 127 58 72 41 58 19 -74
32 0 -1 2 127 -1 10 -4
7 121 36 14 -127 19 32 -36
-39 26 56 -127 9 29 -21 105
-39 71 40 -127 42 43 -15 104
-74 -70 -94 6 -127 121 115 -26
96 37 -127 26 9 -28 -67 -19
-61 46 28 0 -21 74 -127 96
-109 -46 -127 8 -51 -72 54 112
53 -10 -28 -26 114 -5 127 -40
127 -60 19 85 -6 18 -19 92
36 58 51 3 127 -94 79 -60
-15 -9 -30 -38 -82 21 127 -26
45 -127 -53 -67 -106 -2 4 -68
10 32 -8 -12 -127 9 -40 -8
00000000: 482b 7fdc 476a a7d1 06b2 8106 3617 1c04
00000010: 81f8 b6e9 2a10 b7d6 3143 7fa6 ec89 02ed
00000020: 811a d5f0 2711 d8d1 a316 caf9 0a1c a581
00000030: e683 812e 5efd 0d2c b681 93a5 c4b8 0462
00000040: 611c f203 60ad 8105 db2a d953 cae0 7fe1
00000050: e97f 204e 79e9 f136 bad3 ecfa a76d 7feb
00000060: 5123 811d eed6 c2ec 41df b511 0481 e5e5
00000070: 01b1 4b14 7fa3 c510 e1d9 f47f 3e4a b616
00000080: 781b d20d 448c 81e4 327f 3a48 293a 13b6
00000090: 2000 ff02 7fff 0afc 0779 240e 8113 20dc
000000a0: d91a 3881 091d eb69 d947 2881 2a2b f168
000000b0: b6ba a206 8179 73e6 6025 811a 09e4 bded
000000c0: c32e 1c00 eb4a 8160 93d2 8108 cdb8 3670
000000d0: 35f6 e4e6 72fb 7fd8 7fc4 1355 fa12 ed5c
000000e0: 243a 3303 7fa2 4fc4 f1f7 e2da ae15 7fe6
000000f0: 2d81 cbbd 96fe 04bc 0a20 f8f4 8109 d8f8

model_1/block_2_project/Conv2D i1 [8, 1, 1, 48]
-39 -47 -3 -55 -4 -3 82 89
-98 -88 -41 4 -47 -8 -58 35
-83 8 20 127 66 -15 15 100
75 73 26 0 -80 -60 -76 -57
-47 103 50 -50 28 -27 93 2
38 -2 -6 -106 36 -43 -29 -76
-10 45 -28 -29 -58 56 -13 -44
-32 58 -16 15 41 47 -50 -2
-27 -97 69 -48 127 10 -60 25
51 -11 -72 60 28 -16 58 23
-35 -22 9 -14 2 95 -15 -32
66 22 -1 6 86 8 -28 57
-20 -29 105 3 97 -47 -3 16
-39 8 -4 38 7 -39 -53 -127
-58 -96 -25 13 -103 31 -44 -35
-55 7 -7 -43 -40 4 -34 -15
-9 -9 24 -7 13 -26 -49 1
38 -36 35 -50 -41 -43 -58 -52
50 18 59 9 27 -29 31 58
-52 -36 39 -9 -70 55 -10 53
46 44 -36 25 -102 -69 127 -16
-4 -5 -68 -30 -53 65 105 -73
6 -120 -19 34 -1 -79 -23 73
-69 -65 59 -9 -102 -71 65 -18
22 -15 66 -26 5 -3 5 5
-52 -9 -25 13 42 -74 34 -87
36 43 -2 -37 11 27 9 14
4 -10 53 -17 34 21 -127 -20
-29 -19 5 24 51 -2 30 7
-30 -15 -72 34 -20 -95 11 22
29 -42 58 19 24 20 27 -11
-72 -15 -49 22 22 9 15 -44
00000000: d9d1 fdc9 fcfd 5259 9ea8 d704 d1f8 c623
00000010: ad08 147f 42f1 0f64 4b49 1a00 b0c4 b4c7
00000020: d167 32ce 1ce5 5d02 26fe fa96 24d5 e3b4
00000030: f62d e4e3 c638 f3d4 e03a f00f 292f cefe
00000040: e59f 45d0 7f0a c419 33f5 b83c 1cf0 3a17
00000050: ddea 09f2 025f f1e0 4216 ff06 5608 e439
00000060: ece3 6903 61d1 fd10 d908 fc26 07d9 cb81
00000070: c6a0 e70d 991f d4dd c907 f9d5 d804 def1
00000080: f7f7 18f9 0de6 cf01 26dc 23ce d7d5 c6cc
00000090: 3212 3b09 1be3 1f3a ccdc 27f7 ba37 f635
000000a0: 2e2c dc19 9abb 7ff0 fcfb bce2 cb41 69b7
000000b0: 0688 ed22 ffb1 e949 bbbf 3bf7 9ab9 41ee
000000c0: 16f1 42e6 05fd 0505 ccf7 e70d 2ab6 22a9
000000d0: 242b fedb 0b1b 090e 04f6 35ef 2215 81ec
000000e0: e3ed 0518 33fe 1e07 e2f1 b822 eca1 0b16
000000f0: 1dd6 3a13 1814 1bf5 b8f1 cf16 1609 0fd4

model_1/block_2_depthwise_BN/FusedBatchNormV3;model_1/block_2_depthwise/depthwise;model_1/block_3_depthwise/depthwise i1 [1, 3, 3, 48]
4 -28 11 3 -21 -106 -46 69
-63 -10 17 1 50 -11 -16 10
98 3 9 8 14 -26 -74 25
-8 -8 -13 -18 -52 78 -20 -127
40 -13 -43 -59 -13 -34 10 -7
-2 47 -2 -8 -24 61 127 -12
-127 -81 -22 127 -73 72 -101 127
23 12 19 -9 56 20 -15 -37
-38 44 27 3 0 118 12 127
112 -27 -57 29 53 -117 -22 -66
58 -20 -39 -108 21 10 -57 -46
-105 11 -105 -127 27 60 55 124
-14 -9 11 10 -34 29 29 54
-2 -43 6 -3 -21 -1 1 10
-72 15 -61 -34 -15 -43 127 23
-45 -6 -5 9 14 37 4 0
-17 -24 -26 85 7 -2 14 60
47 -12 27 -39 -6 44 -23 -4
-17 -29 -23 -1 31 -113 127 -63
-35 10 46 26 127 15 11 -28
-27 -34 29 57 84 -69 34 21
-67 127 -88 -7 127 -81 47 -93
-56 4 -70 6 8 -68 -42 -4
127 127 5 -118 -78 -65 -19 97
90 -127 127 -3 127 62 -70 -65
31 127 127 -127 -91 127 127 127
127 127 127 127 127 114 0 13
100 -93 -127 112 34 127 127 35
-127 127 127 127 -127 127 -127 -127
51 37 -127 -4 127 -127 -30 90
22 3 -39 -6 -62 127 -127 69
113 -77 18 51 -42 12 12 -65
00000000: 04e4 0b03 eb96 d245 c1f6 1101 32f5 f00a
00000010: 6203 0908 0ee6 b619 f8f8 f3ee cc4e ec81
00000020: 28f3 d5c5 f3de 0af9 fe2f fef8 e83d 7ff4
00000030: 81af ea7f b748 9b7f 170c 13f7 3814 f1db
00000040: da2c 1b03 0076 0c7f 70e5 c71d 358b eabe
00000050: 3aec d994 150a c7d2 970b 9781 1b3c 377c
00000060: f2f7 0b0a de1d 1d36 fed5 06fd ebff 010a
00000070: b80f c3de f1d5 7f17 d3fa fb09 0e25 0400
00000080: efe8 e655 07fe 0e3c 2ff4 1bd9 fa2c e9fc
00000090: efe3 e9ff 1f8f 7fc1 dd0a 2e1a 7f0f 0be4
000000a0: e5de 1d39 54bb 2215 bd7f a8f9 7faf 2fa3
000000b0: c804 ba06 08bc d6fc 7f7f 058a b2bf ed61
000000c0: 5a81 7ffd 7f3e babf 1f7f 7f81 a57f 7f7f
000000d0: 7f7f 7f7f 7f72 000d 64a3 8170 227f 7f23
000000e0: 817f 7f7f 817f 8181 3325 81fc 7f81 e25a
000000f0: 1603 d9fa c27f 8145 71b3 1233 d60c 0cbf

model_1/block_2_expand/Conv2D i1 [48, 1, 1, 8]
55 127 -71 -56 15 63 15 50
55 -88 53 -127 -54 81 -83 -52
-33 127 102 43 100 -7 49 11
93 45 -87 69 -8 -126 -127 -18
-51 42 -14 -89 -50 104 127 69
11 80 -127 -68 46 75 25 -36
-9 127 89 81 92 2 -19 -101
127 -21 -34 50 16 3 106 10
59 127 49 76 124 88 92 -81
53 95 -125 -110 10 127 -14 112
-58 -45 30 -49 -9 -35 -47 127
15 -103 -127 -7 16 -10 38 -6
-32 -125 -109 -22 -127 23 -75 65
-4 0 -102 98 -127 -28 -2 -19
-69 -44 -127 -2 40 -10 -22 -67
20 -98 -127 32 -115 -26 -26 -14
127 -57 -20 56 -74 21 25 87
-13 116 127 -30 -32 -20 -32 -16
23 -127 47 89 2 -78 44 -89
127 -51 -62 41 -115 8 44 110
-23 -127 78 67 -19 -89 2 -68
1 -54 -1 -18 127 -8 45 16
-127 31 -89 43 56 50 -100 -112
-93 -51 66 15 -73 127 106 -35
-26 50 -3 -21 -3 123 127 -11
-38 -109 -127 -57 -69 -16 -2 -40
-18 49 -18 127 -109 24 -59 4
12 -127 40 78 14 -56 11 -126
6 127 72 59 104 -38 23 -59
116 43 -31 -12 54 -127 -92 5
24 1 55 -127 14 -10 9 -25
43 -42 4 71 -11 21 14 127
00000000: 377f b9c8 0f3f 0f32 37a8 3581 ca51 adcc
00000010: df7f 662b 64f9 310b 5d2d a945 f882 81ee
00000020: cd2a f2a7 ce68 7f45 0b50 81bc 2e4b 19dc
00000030: f77f 5951 5c02 ed9b 7feb de32 1003 6a0a
00000040: 3b7f 314c 7c58 5caf 355f 8392 0a7f f270
00000050: c6d3 1ecf f7dd d17f 0f99 81f9 10f6 26fa
00000060: e083 93ea 8117 b541 fc00 9a62 81e4 feed
00000070: bbd4 81fe 28f6 eabd 149e 8120 8de6 e6f2
00000080: 7fc7 ec38 b615 1957 f374 7fe2 e0ec e0f0
00000090: 1781 2f59 02b2 2ca7 7fcd c229 8d08 2c6e
000000a0: e981 4e43 eda7 02bc 01ca ffee 7ff8 2d10
000000b0: 811f a72b 3832 9c90 a3cd 420f b77f 6add
000000c0: e632 fdeb fd7b 7ff5 da93 81c7 bbf0 fed8
000000d0: ee31 ee7f 9318 c504 0c81 284e 0ec8 0b82
000000e0: 067f 483b 68da 17c5 742b e1f4 3681 a405
000000f0: 1801 3781 0ef6 09e7 2bd6 0447 f515 0e7f

model_1/block_1_project/Conv2D i1 [8, 1, 1, 48]
-43 3 38 11 -36 -17 3 4
-43 -9 -70 -50 -24 -65 -17 -35
44 -37 37 48 -18 37 -41 10
6 -37 49 -15 -5 -11 9 15
82 33 40 -127 16 -4 -18 -26
1 -17 37 45 35 4 26 0
2 42 66 -36 -13 52 -43 -31
3 21 -15 -101 18 97 -13 61
-27 20 -33 -57 12 -96 -33 23
-79 -12 -9 -121 -26 -4 38 -64
37 81 -43 7 127 -38 -10 59
-44 43 -88 -41 127 -21 -39 -32
7 -35 -73 11 -13 54 35 2
-6 52 0 27 72 -94 22 -52
34 -112 25 36 -31 54 -9 33
-28 56 -22 -77 22 2 23 -78
-60 -90 36 -25 110 25 -16 -65
-6 31 91 35 127 19 20 27
-15 30 -68 45 8 -35 -77 -101
11 -23 -34 4 10 23 32 79
-8 19 -39 24 14 -109 20 -54
-70 -3 127 -9 -49 2 -69 19
-2 -83 15 -17 -24 -42 -24 103
-44 -32 3 9 43 8 -41 37
-22 -52 -3 8 29 -22 -12 -17
29 -28 60 -78 6 29 9 15
-17 -20 10 -18 1 -49 7 -17
13 -10 44 40 33 20 -10 29
-4 1 1 0 -67 86 31 -24
28 -23 -18 -21 -75 18 127 13
42 -19 1 15 29 -36 38 -127
21 -37 -6 115 -74 68 25 -56
00000000: d503 260b dcef 0304 d5f7 bace e8bf efdd
00000010: 2cdb 2530 ee25 d70a 06db 31f1 fbf5 090f
00000020: 5221 2881 10fc eee6 01ef 252d 2304 1a00
00000030: 022a 42dc f334 d5e1 0315 f19b 1261 f33d
00000040: e514 dfc7 0ca0 df17 b1f4 f787 e6fc 26c0
00000050: 2551 d507 7fda f63b d42b a8d7 7feb d9e0
00000060: 07dd b70b f336 2302 fa34 001b 48a2 16cc
00000070: 2290 1924 e136 f721 e438 eab3 1602 17b2
00000080: c4a6 24e7 6e19 f0bf fa1f 5b23 7f13 141b
00000090: f11e bc2d 08dd b39b 0be9 de04 0a17 204f
000000a0: f813 d918 0e93 14ca bafd 7ff7 cf02 bb13
000000b0: fead 0fef e8d6 e867 d4e0 0309 2b08 d725
000000c0: eacc fd08 1dea f4ef 1de4 3cb2 061d 090f
000000d0: efec 0aee 01cf 07ef 0df6 2c28 2114 f61d
000000e0: fc01 0100 bd56 1fe8 1ce9 eeeb b512 7f0d
000000f0: 2aed 010f 1ddc 2681 15db fa73 b644 19c8

model_1/block_1_depthwise_BN/FusedBatchNormV3;model_1/block_1_depthwise/depthwise;model_1/block_3_depthwise/depthwise i1 [1, 3, 3, 48]
-36 -76 -25 -49 127 -50 71 -65
-83 -85 -17 -62 92 41 92 -127
58 -37 -4 -59 -61 53 -22 20
-8 75 73 -32 75 -77 1 -63
-123 -102 42 81 18 94 91 -70
-117 -28 32 85 50 -127 77 79
-54 -99 -56 32 -80 110 59 -62
-56 44 65 -127 127 81 127 -75
-79 -98 28 -52 -75 24 -66 126
-98 85 89 -127 92 -51 1 -115
-61 -85 76 127 106 112 108 -46
-127 -79 87 107 83 101 81 71
5 -41 -70 82 -42 -37 1 -20
87 29 44 -106 39 44 -31 10
-91 -14 12 -27 0 -42 -84 -1
-77 34 26 -91 39 55 112 -117
-15 5 -2 41 70 70 32 20
-28 101 86 43 49 29 8 -101
-109 -82 -16 -101 -74 -66 102 -119
-127 -127 97 -71 76 47 -98 -68
127 -127 -61 -98 -112 82 -56 17
-5 99 122 -41 -103 -79 -3 -70
-82 -127 -127 75 46 99 -16 -108
77 -29 65 116 84 108 127 -127
-87 -127 -76 -120 -19 127 127 -127
68 79 127 -126 97 127 97 -120
52 -97 -127 -127 -127 127 -127 127
-127 127 127 -118 -127 127 -31 -127
-127 -110 40 110 127 127 -29 -127
114 -121 127 127 127 0 125 105
-50 -20 -127 127 79 -56 34 -29
47 31 29 -77 7 64 112 -48
00000000: dcb4 e7cf 7fce 47bf adab efc2 5c29 5c81
00000010: 3adb fcc5 c335 ea14 f84b 49e0 4bb3 01c1
00000020: 859a 2a51 125e 5bba 8be4 2055 3281 4d4f
00000030: ca9d c820 b06e 3bc2 c82c 4181 7f51 7fb5
00000040: b19e 1ccc b518 be7e 9e55 5981 5ccd 018d
00000050: c3ab 4c7f 6a70 6cd2 81b1 576b 5365 5147
00000060: 05d7 ba52 d6db 01ec 571d 2c96 272c e10a
00000070: a5f2 0ce5 00d6 acff b322 1aa5 2737 708b
00000080: f105 fe29 4646 2014 e465 562b 311d 089b
00000090: 93ae f09b b6be 6689 8181 61b9 4c2f 9ebc
000000a0: 7f81 c39e 9052 c811 fb63 7ad7 99b1 fdba
000000b0: ae81 814b 2e63 f094 4de3 4174 546c 7f81
000000c0: a981 b488 ed7f 7f81 444f 7f82 617f 6188
000000d0: 349f 8181 817f 817f 817f 7f8a 817f e181
000000e0: 8192 286e 7f7f e381 7287 7f7f 7f00 7d69
000000f0: ceec 817f 4fc8 22e3 2f1f 1db3 0740 70d0

model_1/block_1_expand/Conv2D i1 [48, 1, 1, 8]
-28 31 0 -6 -89 -38 -127 22
70 -53 -40 -64 127 -71 81 16
-103 127 -46 -123 56 -19 -33 46
53 23 71 9 84 117 127 -17
-61 -127 61 9 -51 -125 10 -35
127 -23 71 80 -67 -6 1 -27
24 30 127 -23 38 -28 -43 35
22 7 -127 -38 -34 87 79 -62
-16 127 -37 -4 82 122 49 46
-29 116 -68 78 1 -127 41 123
-10 -122 -5 -39 -90 -127 -56 -82
-127 -75 106 50 -12 -62 96 57
-42 43 -127 65 33 -55 -63 88
82 -127 88 74 4 21 34 -54
-33 66 -33 -127 -21 -85 -21 -61
38 119 36 -20 40 -61 114 -127
-127 -103 -64 83 -55 23 -27 76
-27 -111 -127 74 -47 86 -45 75
-114 -65 -36 66 -17 51 -26 127
63 -127 104 -111 12 -73 33 -40
1 71 26 25 41 127 73 -12
28 112 43 -27 36 -56 90 -127
26 12 102 17 -6 127 42 -44
-88 -67 49 -57 100 93 -45 -127
-91 -92 48 -82 97 87 -39 -127
127 10 -55 -17 18 32 -60 -7
-126 -33 -127 -20 -57 -29 17 -1
84 46 -4 -64 -127 -27 95 109
-127 -83 11 39 -67 -105 9 -7
120 91 36 -127 30 -3 -43 -100
-80 -60 43 -57 79 81 -40 -127
47 40 -9 127 6 -67 8 8
00000000: e41f 00fa a7da 8116 46cb d8c0 7fb9 5110
00000010: 997f d285 38ed df2e 3517 4709 5475 7fef
00000020: c381 3d09 cd83 0add 7fe9 4750 bdfa 01e5
00000030: 181e 7fe9 26e4 d523 1607 81da de57 4fc2
00000040: f07f dbfc 527a 312e e374 bc4e 0181 297b
00000050: f686 fbd9 a681 c8ae 81b5 6a32 f4c2 6039
00000060: d62b 8141 21c9 c158 5281 584a 0415 22ca
00000070: df42 df81 ebab ebc3 2677 24ec 28c3 7281
00000080: 8199 c053 c917 e54c e591 814a d156 d34b
00000090: 8ebf dc42 ef33 e67f 3f81 6891 0cb7 21d8
000000a0: 0147 1a19 297f 49f4 1c70 2be5 24c8 5a81
000000b0: 1a0c 6611 fa7f 2ad4 a8bd 31c7 645d d381
000000c0: a5a4 30ae 6157 d981 7f0a c9ef 1220 c4f9
000000d0: 82df 81ec c7e3 11ff 542e fcc0 81e5 5f6d
000000e0: 81ad 0b27 bd97 09f9 785b 2481 1efd d59c
000000f0: b0c4 2bc7 4f51 d881 2f28 f77f 06bd 0808

model_1/expanded_conv_project/Conv2D i1 [8, 1, 1, 16]
-16 -14 -18 -74 -26 -33 23 -21
34 7 -30 -8 109 127 -20 -104
127 -60 -45 11 -43 70 -72 -50
-40 81 -31 -51 -9 4 -64 -16
-34 -95 42 43 48 -59 -85 -24
37 -98 29 -127 53 -21 -77 23
42 10 14 23 -12 76 -52 -18
127 55 10 15 -3 -9 5 29
-94 -41 -28 -127 -6 33 50 -120
37 -29 -54 -41 -116 32 -40 -22
84 49 62 -42 40 -46 -126 -127
-16 -81 60 44 -52 47 58 -47
117 38 -127 -71 34 -78 -2 -96
-45 19 -127 95 92 -93 4 76
-127 -1 97 -33 -65 -2 -3 -59
-52 63 91 -28 60 -28 24 26
00000000: f0f2 eeb6 e6df 17eb 2207 e2f8 6d7f ec98
00000010: 7fc4 d30b d546 b8ce d851 e1cd f704 c0f0
00000020: dea1 2a2b 30c5 abe8 259e 1d81 35eb b317
00000030: 2a0a 0e17 f44c ccee 7f37 0a0f fdf7 051d
00000040: a2d7 e481 fa21 3288 25e3 cad7 8c20 d8ea
00000050: 5431 3ed6 28d2 8281 f0af 3c2c cc2f 3ad1
00000060: 7526 81b9 22b2 fea0 d313 815f 5ca3 044c
00000070: 81ff 61df bffe fdc5 cc3f 5be4 3ce4 181a

model_1/expanded_conv_depthwise_BN/FusedBatchNormV3;model_1/expanded_conv_depthwise/depthwise;model_1/block_4_project/Conv2D i1 [1, 3, 3, 16]
5 -2 7 5 -17 11 7 16
-5 -11 -3 -9 -1 -5 0 2
11 -11 3 7 15 -3 15 -26
-10 9 -8 88 -6 21 -1 1
5 -6 -4 9 6 -15 1 11
1 2 3 -11 4 -1 -1 0
9 -11 1 4 127 -24 -127 -21
127 127 -3 -3 115 -22 -6 -16
-127 127 127 0 -86 -92 -11 -103
15 -106 127 127 127 127 127 127
23 -13 -7 3 -7 127 12 -10
-1 -13 -2 -10 9 0 -17 -7
1 1 6 -13 -18 16 53 7
-6 -8 -4 5 -6 2 -1 -9
25 -21 0 -127 6 -16 -12 127
-4 1 -6 -19 -11 -56 -6 -35
9 -4 2 -4 2 -5 0 -2
1 1 -3 -4 0 -3 -6 -11
00000000: 05fe 0705 ef0b 0710 fbf5 fdf7 fffb 0002
00000010: 0bf5 0307 0ffd 0fe6 f609 f858 fa15 ff01
00000020: 05fa fc09 06f1 010b 0102 03f5 04ff ff00
00000030: 09f5 0104 7fe8 81eb 7f7f fdfd 73ea faf0
00000040: 817f 7f00 aaa4 f599 0f96 7f7f 7f7f 7f7f
00000050: 17f3 f903 f97f 0cf6 fff3 fef6 0900 eff9
00000060: 0101 06f3 ee10 3507 faf8 fc05 fa02 fff7
00000070: 19eb 0081 06f0 f47f fc01 faed f5c8 fadd
00000080: 09fc 02fc 02fb 00fe 0101 fdfc 00fd faf5

model_1/Conv1/Conv2D i1 [16, 3, 3, 1]
-85 -109 -30 67 -36 17 32 127
19 106 -95 -10 -127 105 24 15
-1 -12 -23 -2 -47 36 95 127
-11 -93 -78 117 122 56 0 -23
-15 -102 -127 -44 34 -55 2 34
-127 2 18 -87 -15 -65 26 2
-127 36 8 -83 28 2 -16 80
127 -50 56 -15 -35 -50 -86 36
17 -29 127 73 -8 23 -1 -26
-20 -30 53 -53 -86 127 -25 -60
97 -20 58 -2 -17 127 -4 -4
94 1 24 87 12 -37 -127 -29
12 40 17 7 -19 10 65 -94
35 -86 127 -47 -41 50 -10 -127
115 6 -78 79 5 70 9 -10
127 111 7 78 126 80 -30 -27
48 45 99 -127 -16 -70 80 -82
-26 20 -127 -121 22 -28 -77 -6
00000000: ab93 e243 dc11 207f 136a a1f6 8169 180f
00000010: fff4 e9fe d124 5f7f f5a3 b275 7a38 00e9
00000020: f19a 81d4 22c9 0222 8102 12a9 f1bf 1a02
00000030: 8124 08ad 1c02 f050 7fce 38f1 ddce aa24
00000040: 11e3 7f49 f817 ffe6 ece2 35cb aa7f e7c4
00000050: 61ec 3afe ef7f fcfc 5e01 1857 0cdb 81e3
00000060: 0c28 1107 ed0a 41a2 23aa 7fd1 d732 f681
00000070: 7306 b24f 0546 09f6 7f6f 074e 7e50 e2e5
00000080: 302d 6381 f0ba 50ae e614 8187 16e4 b3fa
